weights/imitation/MLP_0916-1442.pth (torch, 316312 bytes, 14 tensors)

lstm.weight_ih_l0 f4 [256, 1]
00000000: 0c82 e43d c0ab 4d3f d734 8c3c e8e0 61bd
00000010: bdf2 d7bc 54f6 5b3e c897 84bd 0b2b 0a3e
00000020: ed34 abbc 740a 5b3c 6a1d 8ebe 044a 31be
00000030: 9c20 16bd 4ff5 0e3e 6769 a2bc 938f 353e
00000040: 7d82 1b3e 81bb 7a3e 74bc e03e 125d 343e
00000050: aad5 a53d 96ad e5bd e458 9cbe 56f0 483e
00000060: 2448 9cbe a474 ab3d bda9 92be 39de b03e
00000070: 2bf9 5e3e 7258 bc3c 5e35 03bd 50de 083e
00000080: 74d7 04be a8a6 1abc 0ac6 3dbe 664c a63d
00000090: 47b7 d3bd d377 683e 7453 113e c00e be3c
000000a0: 0f88 e33d 8b6b 343e 79cc 463e eaf9 fd3b
000000b0: 64a5 8f3d 9945 223e 5e98 8abd 6c8f 3ebe
000000c0: 0d1c 89be 27f8 373d 8331 db3d 9be9 153e
000000d0: bbaa 23be 5988 0c3d f97d 4e3e e536 c8bc
000000e0: 3ffc ad3d cacf 313d f024 c4bd fad7 30be
000000f0: d2e3 0f3e cc6a 72bc 4e7a e53e 0585 273e
00000100: 03da ce3d b3ed 26bf 2056 c9be 1ff6 a3be
00000110: bde1 02bd d447 473e 09e4 113e 4af5 593e
00000120: 8096 d43c 2618 113e 529b f7be 8af8 37be
00000130: 637a 10be 24f4 c9be b4f3 8a3e c434 89be
00000140: ce06 a9bc 71ca 673e 60b8 2d3f f57d 143e
00000150: 736f 963e f89f cfbd 2134 64be 7b09 403e
00000160: 5e78 1ebf ee2e 723e e442 b1be cebf 863e
00000170: 1768 833e c502 be3d 42a7 513e 9887 ae3d
00000180: b999 94be 1991 943d c835 dcbe 3dcf d23d
00000190: 1872 bdbd f683 3f3d c5ca 9b3d cde2 a8bd
000001a0: 565a 4e3e c682 f93d 876d 78be e6af 1e3e
000001b0: d911 0e3e 4f3b 993e 4a8b 393e c0f1 93bc
000001c0: 7a1d dabe 60df a03e 4952 153c cd8f 423e
000001d0: 3023 f1be f98c 2d3e 3b66 103e 5cec c4bc
000001e0: 0da8 5c3e db8e 713e ec3a 88bd 0466 cebe
000001f0: acea 3bbf a9f4 5b3e 2328 95be 3636 0e3e
00000200: 7d27 1c3e 673b 6abe e739 be3e 6954 3c3e
00000210: 00b2 e83d f66e 5bbe 0861 e13c 7887 1bbe
00000220: c657 283b a37a bdbd bdd9 7ebe 2ba5 723e
00000230: 9b49 3abc 8975 83be 9d85 f9bd 1a2a 0abe
00000240: 5cd8 253e cbc1 3dbe d871 913e 690d 0bbe
00000250: 81aa 44be 0ba0 dbbd 007c 00be 9d42 063e
00000260: 1155 d43d 287b d4bd 4d73 0cbe e2fd 80bc
00000270: 195f 5ebe 3584 7e3d 28ea b43d 6f23 603d
00000280: 27f4 3cbe c748 4c3e e308 35be a4bd 4a3e
00000290: d266 b7bd 3d12 413e 68f0 76bd db52 01be
000002a0: 463b 41bc cbc5 88bd cd2d 783e 41db 07be
000002b0: 9698 f23d e302 21be 486d 2abe 78be a03d
000002c0: 8b40 723d 3dcf afbd 4acb de3d f898 6c3e
000002d0: c6aa 583e a0d5 103c a9a9 95be 1966 593d
000002e0: 8da9 fb3d aeaa a63d 73f1 abbd 60fb b0be
000002f0: 4a2b 363e 65ea 9bbc 5bb1 6d3e 5553 0e3e
00000300: deb7 c53d 751f 2abe 3b1e 49be 6199 6ebe
00000310: 2062 023e 9036 853e 54f5 ef3d 5f99 723d
00000320: 4329 4a3d 9b10 063e c1dc c8be 6e80 b6bd
00000330: b1b4 df3d e301 7cbe 7939 cb3d 5501 91bd
00000340: 9694 85bd 78bf 903e 836f 1d3f a606 d83d
00000350: e861 383e a075 593c adf2 6abe c934 8a3e
00000360: 911f e8be 0bcc e03d 29c3 5ebe b611 a63e
00000370: 6bc2 d93d 8c49 fd3d 2607 7ebd 8e42 1f3e
00000380: 050e 68be fefa 743d 8468 25be ca29 0c3e
00000390: 0a51 82be efac 6a3e 1330 dd3d f654 c93c
000003a0: 2224 273d 5b16 853e 9097 edbc c9c1 1b3d
000003b0: 2e98 dabc 8a2b 0a3e 2809 3b3e 5784 0ebc
000003c0: 49e1 4fbe da57 663e ad7a 643e 13d1 4b3e
000003d0: 5900 b7be 3417 c03d e6e3 1c3e 8809 183c
000003e0: cb38 b93e eb65 5d3e 6a15 b13d 5c98 65be
000003f0: 36fa 5abe 80e4 453e 4f17 c23d ffdb 623e
0.11157617 0.80340195 0.01711504 -0.055146128 -0.026360864 0.21480685 -0.064742625 0.13492982
-0.02089926 0.013369191 -0.27756816 -0.17313391 -0.036652192 0.13960765 -0.01982565 0.1773055
0.15186496 0.2448559 0.43893778 0.17613629 0.08097394 -0.112147495 -0.30536568 0.19622931
-0.3052379 0.08371857 -0.28645125 0.34544542 0.21774738 0.022991393 -0.032033317 0.13366055
-0.12972814 -0.009439148 -0.18532577 0.081200406 -0.10337692 0.2270196 0.14191991 0.023200393
0.111099355 0.1761915 0.19413938 0.0077507393 0.07013968 0.15846862 -0.06767343 -0.18609399
-0.26779214 0.04491439 0.10702803 0.14639895 -0.15983097 0.03430972 0.20165242 -0.024440238
0.08495378 0.043411054 -0.09577358 -0.17269889 0.1405175 -0.01479597 0.44819874 0.16359337
0.10100176 -0.6520645 -0.3932352 -0.32023713 -0.031953562 0.19460994 0.14247145 0.21284977
0.02595067 0.14169368 -0.48360687 -0.17965904 -0.14109187 -0.39444077 0.27139056 -0.2679807
-0.020633128 0.22635819 0.6785946 0.14501174 0.29381904 -0.101379335 -0.2228551 0.18753617
-0.61902416 0.23650715 -0.34621346 0.2631821 0.25665352 0.09277872 0.2047396 0.08521956
-0.2902353 0.07254238 -0.43009782 0.10293434 -0.09250277 0.046756707 0.076070346 -0.08246384
0.20151648 0.12183146 -0.24260531 0.15496787 0.13873996 0.2992806 0.18119541 -0.018059611
-0.42600614 0.31420422 0.009113857 0.19000168 -0.47097158 0.16948308 0.14101498 -0.024038486
0.21548481 0.23589651 -0.066518635 -0.40312207 -0.73404956 0.21480049 -0.29132184 0.13887867
0.15249439 -0.22874223 0.3715355 0.18391575 0.11362076 -0.21429047 0.027512088 -0.15188396
0.0025687083 -0.09251907 -0.24887748 0.23695819 -0.011370088 -0.2567561 -0.12183688 -0.13492623
0.16195816 -0.18530957 0.28407168 -0.13579334 -0.19205667 -0.10723885 -0.12547302 0.13111348
0.10367788 -0.10375053 -0.13715859 -0.01574606 -0.21715964 0.0621378 0.08833724 0.054721292
-0.18452512 0.19949637 -0.17679171 0.19798905 -0.08955158 0.18854614 -0.060287863 -0.12629263
-0.011793917 -0.06678351 0.24236222 -0.13267232 0.1184551 -0.15723757 -0.1664325 0.07848829
0.059143584 -0.085844494 0.10878618 0.23105228 0.21158895 0.008839995 -0.29231003 0.053075884
0.122881986 0.08138023 -0.08395662 -0.34566784 0.17789951 -0.019032666 0.23212187 0.13898976
0.096542105 -0.16613562 -0.19640438 -0.23300697 0.12732744 0.2601819 0.117167145 0.059228297
0.049355756 0.13092272 -0.39230922 -0.08911215 0.10923136 -0.24610095 0.099230714 -0.07080332
-0.06522481 0.2827108 0.6149828 0.10548143 0.18006098 0.013272673 -0.22944136 0.26993397
-0.45336583 0.10976418 -0.21754135 0.32435387 0.106327854 0.123675436 -0.062018536 0.15552732
-0.22661598 0.059809677 -0.16153151 0.13687816 -0.25452453 0.22917531 0.10800185 0.024576645
0.040805943 0.25993618 -0.029002935 0.038026605 -0.026683893 0.13493171 0.18265212 -0.008698544
-0.20300783 0.2249445 0.22312422 0.19903974 -0.35742453 0.09379426 0.15321311 0.009279616
0.36176142 0.2162091 0.086466625 -0.22421402 -0.2138451 0.19325447 0.09477102 0.22154234

lstm.weight_hh_l0 f4 [256, 64]
00000000: b8cd 933d 0d96 a9bd eb01 18be 17ba b13d
00000010: 20aa 1fbe 594f 9a3d 0c8f d83d 27f8 16be
00000020: 4f1b 08be 2758 1fbe 0e4c babc d1d8 b7bd
00000030: 2ea1 a43d b5f2 a6bc 8133 c0bd 31e3 893d
00000040: 7c47 2f3c a483 f33c 4826 4d3c 1557 8f3d
00000050: 94bd a93c 1e89 a8bd 7b8f aabd be3b cf3d
00000060: 2e48 2dbd 263c 993c 1b79 be3d 3107 5b3d
00000070: 674c 0ebe dbca 143d 14a0 5bbd 84d4 0d3e
00000080: bd53 9cbd 7a23 053a 229b 57bd 34ab 383d
00000090: 91b2 0d3e c82b 6c3d 4a73 d3bd 1add 1c3d
000000a0: b9b4 9abd 09ef 00be 317e afbd 8894 00bd
000000b0: 8553 0e3d 178d b23c 824c bd3c 4273 a93d
000000c0: 9f03 dabc d075 f3bd e02d da3d 320f 3bbd
000000d0: ea51 07bc 0326 993c 5f3b 783d 594a dc3d
000000e0: 99c5 9dbd 45a0 bbbc d443 ff3d 6728 e13a
000000f0: bb2f ecbd 18bb afbd e379 b33d e768 8d3d
00000100: 81d4 1b3e ae13 4f3e ecfd 753c bdae 17be
00000110: 94a4 96bd fc52 f4bd 1afb df3d f438 cabd
00000120: 54bd 1bbe b449 acbd e960 0d3e f59f 033d
00000130: 1075 083d c766 91bd d2f2 adbd 2442 a7bc
00000140: 48f6 b73d 098e f1bc 189e 663d 0556 17be
00000150: d27d 24be aa89 303e ff61 f63d 28fd fa3d
00000160: 04b7 a0bd 3197 e9bd 5940 d7bc 099d 03be
00000170: bdf6 dfbd e5a9 173c 94dc 563e 0fad c8bc
00000180: 6cd7 853d 5400 413e 0077 2bbd dade 8a3e
00000190: 5d41 123e a208 a9bd dbfe 40bd bd8e 50bd
000001a0: 17cc 373e b93a 0ebe 7116 44be 4c55 e2bc
000001b0: 73cc 9f3d d843 1abe e699 0cbe fda6 08be
000001c0: 01dd 4abd 9150 83bd ca1f 573d 443d b7bd
000001d0: 0216 3cbe 4d92 0ebd b30e 1cbd 3fd1 333e
000001e0: dff3 7d3d 7969 453d 7c8d 173e 7938 cbbc
000001f0: e122 a93b 580e 663c faad 0cbe 197d a03d
00000200: 25af c1bc 40ef d23d acd0 9cbe bde1 f5bb
00000210: 776f 4cbd b158 013d 5f4d 023e 38bf 1fbe
00000220: 672a 09be f63a 2cbd e817 8f3d a6df e63c
00000230: cbe5 2c3e 4f0d 7b3d 3a1a 303d 2888 d0bc
00000240: 9a2d 023c 4e79 06be 16b8 b33d 3dbc f7bd
00000250: 6c08 1fbe 3e2b 103e 8b6b 853d 6384 0a3e
00000260: a0ce aebc 54d7 0cbe 93f0 f83d fa25 6ebd
00000270: 54ce 2ebe f10c 083e e458 db3d 5ec1 1f3e
00000280: c0f2 283e eb1d 443d b033 5d3e 3f10 b2bb
00000290: ff46 723e 72a8 b1bd a10e 36bc 8bb6 5f3e
000002a0: da19 243e 13f3 8ebd 915e 59be db37 26be
000002b0: 360f 01be 7e43 a6bd e0f4 12be 7081 c2bd
000002c0: 8f68 a4bc 5d07 cfbd 837c 3c3e 78ec 8abd
000002d0: 6aeb a9bd c4dc 9bbd b5b4 16ba e1e0 e23d
000002e0: 1a0a 493c e2e2 d73d e80e 363d f8a8 8f3e
000002f0: 6a9b 19be 7f64 debd 07cf d63d 9aaf 893d
00000300: aa41 ea3c 737d d63d 2ffa 18be e91c 91bd
00000310: d2cb 00be 6ae4 e33d d3fc 23be 396e 4e3d
00000320: 47ae 9d3d fc05 213e eade a63d 1c55 ffbd
00000330: 7caa 1a3e 9a28 353e d195 153e 4ffc 3b3d
00000340: 3c66 203c 239a e7bc d644 86bd 0903 213e
00000350: 3f45 13bd bfb4 7c3d 3f01 8f3d 8d50 80bd
00000360: 566b 0dbc 98f0 ed3b 6c02 103e f055 753d
00000370: 8516 263e c833 883b 7166 5b3d 6eb1 3dbd
00000380: 8435 46bd c6a0 07be 2ae5 86bd 94c9 b8bd
00000390: 0c1a f0bc a6c0 653c 4d18 7d3c 751c 9abd
000003a0: 2e16 b63d 71c2 0a3e 9d60 00bd 6d62 8c3d
000003b0: 0683 25bd 3478 f83d 1e37 03bd 549d 26bd
000003c0: 8fd3 d53b 5b5c 14be 7d72 833b 5103 1abe
000003d0: de36 91bd 86e4 0abe 840f 113e 7582 8b3d
000003e0: 63d9 863d abdb 25bd 8046 a13d c196 873d
000003f0: 4257 37be 1625 3b3d 7077 79be 95fb c4bc
0.07216972 -0.08280573 -0.14844482 0.08678072 -0.15592241 0.075346656 0.10574159 -0.147431
-0.13291667 -0.15560971 -0.022741344 -0.08976901 0.08038555 -0.020379404 -0.093848236 0.067327864
0.010698196 0.029725857 0.012521334 0.069990315 0.02072028 -0.08229278 -0.08328148 0.10118817
-0.042305164 0.018705439 0.09300443 0.053473655 -0.13896333 0.03632627 -0.05361946 0.138506
-0.07633159 0.0005078834 -0.05263818 0.045085147 0.13837649 0.05765894 -0.10324724 0.038296796
-0.07554001 -0.12591185 -0.08568991 -0.03139165 0.03474762 0.021795793 0.02310777 0.08273937
-0.026613055 -0.11887705 0.10653281 -0.04566879 -0.008259276 0.018694883 0.060603496 0.10756368
-0.077037044 -0.02290357 0.12464109 0.0017178179 -0.11532541 -0.08580607 0.087634824 0.06904774
0.15217783 0.20222351 0.015014153 -0.14812751 -0.073556095 -0.119298905 0.10936566 -0.09874144
-0.15208942 -0.08412495 0.138065 0.03213497 0.033314764 -0.07099681 -0.0849358 -0.02041728
0.08982521 -0.029486673 0.056303114 -0.14778908 -0.16063622 0.17240015 0.1203041 0.12255317
-0.078474075 -0.114057906 -0.0262758 -0.12852873 -0.109357335 0.009256815 0.20982581 -0.024496583
0.06535229 0.18847781 -0.041861534 0.27123147 0.14282747 -0.082536 -0.04711805 -0.050917376
0.17948948 -0.13889588 -0.19149186 -0.027628563 0.078026675 -0.15064943 -0.13730583 -0.13344951
-0.049527172 -0.06411851 0.05252055 -0.08947232 -0.1836777 -0.034807492 -0.038099956 0.1756029
0.06200015 0.04819629 0.14800066 -0.024807202 0.0051616286 0.014041506 -0.13738242 0.078363605
-0.023643086 0.102995396 -0.30627954 -0.0075037167 -0.04991099 0.031578723 0.12724827 -0.15600288
-0.13395081 -0.042048417 0.06986982 0.028182816 0.16884534 0.06129199 0.04299376 -0.02545555
0.007945443 -0.13132212 0.08775346 -0.120964505 -0.15530556 0.14078996 0.06514653 0.13527064
-0.02133876 -0.13754016 0.12155261 -0.058141686 -0.17070895 0.13286187 0.10710314 0.15601107
0.16498852 0.047880094 0.21601748 -0.0054340656 0.23659895 -0.086747065 -0.011111886 0.21846978
0.16025487 -0.069799565 -0.2122748 -0.16232245 -0.12603459 -0.08118342 -0.14351225 -0.094973445
-0.020069389 -0.10108826 0.18406872 -0.06783384 -0.08296855 -0.07610467 -0.00057489733 0.110780485
0.012270475 0.10541321 0.04444781 0.280586 -0.15000692 -0.10859012 0.10488706 0.067229465
0.028595764 0.10473146 -0.14939187 -0.07085592 -0.12577751 0.11127551 -0.16014414 0.050398085
0.076992564 0.15724939 0.08147986 -0.12467405 0.15104097 0.1769127 0.14607932 0.045894917
0.00979 -0.02827174 -0.06556098 0.15723814 -0.03595471 0.06169581 0.069826595 -0.06265364
-0.008631548 0.007261347 0.14063424 0.05989641 0.16219528 0.0041565634 0.053564493 -0.04631179
-0.04839088 -0.13244924 -0.06586678 -0.09022823 -0.029309295 0.014022982 0.015447688 -0.07524959
0.08890949 0.13550736 -0.031342138 0.06854711 -0.040408157 0.12132302 -0.032034986 -0.040677384
0.006525464 -0.14488356 0.004011451 -0.15040328 -0.07090543 -0.13563737 0.14166075 0.06811992
0.06584432 -0.040492695 0.07874775 0.06620551 -0.1790438 0.045689665 -0.24361968 -0.024045745

lstm.bias_ih_l0 f4 [256]
00000000: 9f8d 953b 0d2b 693d 33c1 723d d648 033e
00000010: 787b b73d 067e 60bd dd3f 7b3d d75f de3d
00000020: 41be 1abc 21ac ba3d 8a8e a53a 1061 df3d
00000030: 7045 003e 8a1d a93d 7431 fbbc 814d 0d3e
00000040: a035 4b3d 4794 4b3d 37cb e13d fd10 233c
00000050: 5049 0a3d ac67 94bd 41a1 403d d6c3 dbbc
00000060: cd74 adbd 6a95 64bd 23a4 063e 8ac9 95bd
00000070: 89c8 163e e286 a2bd 18b4 0bbc 3a23 7f3d
00000080: 0369 063e 9c7d 96bc 1677 42bd 264f 223c
00000090: ab04 993d 36a1 7bb9 01c0 093e a66b 023e
000000a0: bb20 413d aabb 0d3e e856 013e 1324 153e
000000b0: 7c80 143e 9b68 2a3d dfdb ed3d c989 a43d
000000c0: 05d0 f83d 4471 9a3c 6db5 9e3d 5495 43bd
000000d0: 30a0 b03c 7a7e 62bd 8d98 493b 4e37 05bc
000000e0: 8bdf ecbc 6a01 ec3d 52bc 863d ba24 223e
000000f0: d78b 65bd c610 9e3c dab7 fc3d 14cf a03d
00000100: 7935 193e 44da 423d 429a a83d 6e2e 45bd
00000110: 1979 b3bd 7618 3b3e 1cf2 c73d 24d0 283d
00000120: 733f aebd d0b7 bc3d dd83 c83d 2979 87bd
00000130: 9833 ff3d 0d70 f5bc 2f41 f63d e3a1 793d
00000140: e9ca 603d b3ff e03c a37a 55bd f836 4e3d
00000150: 26db aebd a02a fb3d 2c4f a3bd e0dc cfbd
00000160: 8428 67bb 2458 c5bd 2cb4 0a3c cde8 90bd
00000170: 9a0c 873d 489d acbd 1744 623d bb64 fdbc
00000180: b79e 6bbc 89a8 963d d975 7d3d f2cf 05bc
00000190: e5b1 f23d 1ea0 e53d c182 893c 8dad 89bd
000001a0: 3523 95bd 58ce 423d 71ca 553d bab4 263e
000001b0: cb49 7cbd 3ebf 73bd 4bc3 453d 95da ce3d
000001c0: 3950 e3bc 9c51 10bd d98f af3d 4669 203e
000001d0: 4230 2f3c 4619 a1bc 5e6b d23d e702 6b3d
000001e0: 5043 d03d 9422 c1bc c9de 0f3e fadc 173e
000001f0: 0f0f 983c 4e40 123c e22f ffbc 234c 73bc
00000200: f2e0 b93a eb91 e83d ae7f 12bd eaf9 fabd
00000210: 9822 0dbe 131d 72bd 5a21 ccbc 3355 8ebd
00000220: 47a1 babc 852b 76bd 36f0 803d 6f33 4b3c
00000230: 45d8 103d 0c1c 983c 2f98 ccbd 7182 923d
00000240: 0cf4 fcbd 419b cabd b0e2 3e3d a100 873d
00000250: 1bb6 513c 2a1d 033d 0b33 1d3c c584 d23c
00000260: 88d3 673d 2dab 03be 6827 d5bd 24c2 c23d
00000270: e8ca 1d3d 161d 923b c7e7 793d b819 fc3c
00000280: 3f88 993d 50dc fcbb a961 b83d ffdf 573d
00000290: 5f0b 843d 54ff debc 53d3 acbd 7701 db3d
000002a0: d3b5 ec3d bb71 893d b281 c9bc 4d38 8dbd
000002b0: 0ae5 bc3d e4f7 4e3d 7c1d 12bd 88dc 7ebd
000002c0: 8e2a f4bd 7318 413d d89c d33d 1160 1dbd
000002d0: 2c13 9fbd 30da 0cbe fb0f 2a3d 45cc ed3d
000002e0: af36 af3d f144 ff3d d905 143d 740b 90bd
000002f0: 7ae6 b8bd 8c0b de3b bdf8 adbd 2382 ebbc
00000300: 2878 6e3d fc77 d43d cf18 1e3e 0c7b bebc
00000310: 8be9 b73d f4e8 0c3d ccd9 b63d 11da 2f3d
00000320: 87b4 b43d dc80 9b3c d7da 5c3d 5e05 a2bd
00000330: bae3 dfbd a44a 5f3c db43 873d a1e7 383d
00000340: fa3f 9bbd 8a4a 99bd 1203 1d3e 6591 cb3d
00000350: 4909 563d 499b c13d 7fa0 b9bc d034 97bd
00000360: 08b9 bbbd 7ea7 acbd a66c 0c3e c73c 77bc
00000370: b46e 7bbd 032b b4bd ba5c 47bc c267 38bd
00000380: 7e02 3dbc 5904 863d 14e0 97bd abee 16bd
00000390: cd46 1ebd 7e50 463d c3c8 873d 7e74 56bd
000003a0: d41a 0a3e ba3b 4a3d 6a83 973b 7be6 2dbd
000003b0: 5cee f63d 1c72 0e3e 640c 333d 4f78 9e3d
000003c0: 5895 b7bd dab5 31bd 4515 7fbc 37c2 103e
000003d0: 3646 bcbd 4eee 623d fdeb 0a3d 4701 c0bd
000003e0: d329 9e3d a9a3 c23d ad12 e53d 75b3 fc3c
000003f0: 49c6 d23c 71c7 013c a72d db3c d117 07bd
0.0045640017 0.056925822 0.05926628 0.12820753 0.08959097 -0.054807685 0.0613402 0.10858124
-0.009444774 0.09114862 0.0012630981 0.10907185 0.12526488 0.08257587 -0.03066323 0.13799097
0.049611688 0.049701955 0.11025088 0.009952781 0.033761322 -0.07246336 0.047028784 -0.02682678
-0.084695436 -0.055806555 0.1314855 -0.07313831 0.14724936 -0.07935883 -0.008526824 0.062289454
0.13125996 -0.018370442 -0.04747685 0.009906566 0.074715935 -0.00023997281 0.1345215 0.12736377
0.047150355 0.1384112 0.12630808 0.14564542 0.14502138 0.041603666 0.11614203 0.08034093
0.121490516 0.018852837 0.07749448 -0.047749832 0.021560758 -0.0552964 0.0030761093 -0.008130861
-0.028915187 0.11523707 0.06578888 0.15834323 -0.056041565 0.019295108 0.123397544 0.07851997
0.14961804 0.047571436 0.08232547 -0.048139982 -0.08763332 0.1827105 0.097629756 0.041214123
-0.08508196 0.09214747 0.09790776 -0.06614906 0.124610126 -0.029960657 0.120241515 0.060945403
0.05488101 0.027465677 -0.05211891 0.05034539 -0.08537893 0.122639894 -0.07974085 -0.101495504
-0.0035271952 -0.09635952 0.008465808 -0.07075653 0.065942004 -0.084284365 0.055240717 -0.030931821
-0.014381102 0.07356364 0.061879966 -0.008167254 0.11850337 0.112121806 0.016785981 -0.06722555
-0.07282106 0.047560066 0.052195016 0.16279879 -0.061593812 -0.059508555 0.04828195 0.10100285
-0.027748214 -0.03523408 0.08572359 0.15665159 0.010692658 -0.019665372 0.10274385 0.057375815
0.10169089 -0.023576058 0.1404983 0.1483039 0.018561868 0.008926464 -0.031150762 -0.014849695
0.0014181419 0.11355957 -0.035766296 -0.122546986 -0.13782728 -0.05910976 -0.024918247 -0.06949844
-0.022781981 -0.060100097 0.062958166 0.012402399 0.0353625 0.018568061 -0.09989964 0.07153786
-0.12351236 -0.098928936 0.046602905 0.06591917 0.012799765 0.032010235 0.009594689 0.025698075
0.056598216 -0.12858267 -0.10407907 0.09509686 0.038523585 0.0044590337 0.061012056 0.030773982
0.0749669 -0.007716693 0.09003002 0.052703854 0.06447481 -0.02722136 -0.084387444 0.10693639
0.11558118 0.067111455 -0.024597976 -0.06895504 0.09223373 0.050529376 -0.03567265 -0.062222034
-0.11922179 0.047142457 0.1033265 -0.038421694 -0.077673286 -0.13755107 0.041519146 0.11611227
0.08555352 0.124643214 0.03613839 -0.070334345 -0.09028335 0.006776279 -0.08494709 -0.028748577
0.05822006 0.10374448 0.15439151 -0.023252033 0.08980092 0.03440185 0.0892826 0.042932574
0.08823495 0.018982343 0.05391964 -0.0791118 -0.10932107 0.013628636 0.06604739 0.045142774
-0.07580562 -0.0748492 0.15333202 0.09939841 0.05225495 0.094534464 -0.022659538 -0.0738312
-0.09166151 -0.08430384 0.13713321 -0.015090174 -0.06138487 -0.08797266 -0.012168104 -0.045020826
-0.011536239 0.06543798 -0.074157864 -0.036848705 -0.03864174 0.048416607 0.06630089 -0.05235719
0.13486797 0.049373366 0.00462382 -0.04245613 0.12057182 0.13910717 0.04371299 0.07737791
-0.08964032 -0.043386318 -0.015569036 0.14136587 -0.09193079 0.055403046 0.033916462 -0.09375244
0.07722821 0.09503872 0.11185203 0.03084729 0.025729315 0.007921086 0.026755167 -0.032981697

lstm.bias_hh_l0 f4 [256]
00000000: c96f 8dbd 9306 9cbc 577f 16bd fbb6 8f3a
00000010: 1a60 b53d 3e02 5ebd e799 84bb 8d53 ab3d
00000020: a5fb 6b3d 7b59 e33d 2e3f 213d 79c6 fdbc
00000030: 2059 bfbd 4ba9 213e 261d 073d 380b 28bd
00000040: e5d6 b33d 721b 8abc e1e9 ab3d 9d7c 443d
00000050: 51de c4bd 4675 993c b840 b6bd 653a cabd
00000060: 1507 9d3d 7ed4 53bc 3712 053d 9acd 1a3d
00000070: a54f 1f3e fcd4 8ebd f5db d13c fbaf 1abd
00000080: eabd 5bbd 8295 64bd 3d53 e3bd 264d 573d
00000090: 4491 7abd d90f 123e bd08 adbc a8df d33d
000000a0: d891 203e 86e6 0dbd 8df8 3ebc abfa 24bc
000000b0: f4f1 e0bc 7ef4 103e 2fad 1dbd f37d 5b3b
000000c0: 246d 4d3d aadf ed3d 25de 063e 639a 073e
000000d0: 1f49 91bd aa6a a6bd 5cb0 b3bc 2b8c c7bd
000000e0: 0149 433d b38c 1dbd 6bdb 433d b2e1 983d
000000f0: 891a 083e 32e7 d93d fcc4 be3d e9ff a83c
00000100: 7d3b 9abd 4fa9 9d3d 0f83 133e 5e9c 513d
00000110: 197c 813d 0599 583d c482 e83d 32d0 043d
00000120: 77f0 cebd af7e 5d3d 740d 1b3d 3848 333d
00000130: 5ac5 cb3c 42cf eabb 5b61 86bd bcc2 023e
00000140: 9f9b a13a 87e8 af3d b365 213e 56e1 97bd
00000150: 164e 6dbd 7031 c93d 322a 003e a240 c13d
00000160: 6870 50bd 6444 c23d 806b 9b3d 6526 333d
00000170: d7f7 c83c c2c6 3ebd 13c9 aebd 7abc 023d
00000180: 2760 373c 3077 54bc 4f73 d4bd 279d 8cbd
00000190: 1556 4aba 424e 173c 9524 d8bc 5dc5 363d
000001a0: bfca c43d 8571 94bd f16a 193e 457c b03d
000001b0: 39ae 76bd bbf7 fc3d bf3e 7abd f680 093e
000001c0: 0d07 803d 0c22 0b3e 58f9 97bc 92bb 363e
000001d0: 62ad 923c 79c9 a7bd 53b3 0ebd 7577 95bd
000001e0: e2be aa3d 6c9a 2c3d 5868 ba3d c71e 9cba
000001f0: 110d 9bbd 26cb bbbc 289e eb3b 474e 8c3d
00000200: fe1a f23d c7f9 3d3d c945 5d3a fcc1 5abd
00000210: 75a4 ddbd 8971 6b3d 97d2 5b3a b9cf c13d
00000220: 2c55 06be fdb4 0d3d 5dff 03bc 4a71 48bd
00000230: e377 6a3d 3a40 2c3c 339b 053c 8ec5 6abd
00000240: b89c a93d 493a 213d 42ef fb3d df76 7ebd
00000250: 4451 89bd 1d08 063e ff36 cd3d 3d10 a33d
00000260: acad ecbd a4a8 febd 068a ba3d be2c 96bd
00000270: b15b 983c 8450 e73d b3f0 6a3d 887e e53d
00000280: ac8e 633d af1b a03d e852 2c3d 478c af3d
00000290: a56c d43c 32f9 fc3c c1e9 fcbd 1ba4 f53d
000002a0: 5bce ba3d 0738 c7bd 1ed5 92bd 8032 393d
000002b0: 808a a7bd 24c4 0ebd 123e 7cbd 9c07 9abd
000002c0: e095 b9bd ec88 c8bd 003b dd3d 412e a13c
000002d0: d841 05be 605f 803d c7e7 c63c 2455 073c
000002e0: 791f 3ebd e9ef 443d 85d1 343d b24c fe3d
000002f0: e8e4 c5bd 2885 97bd 14a4 a73c 76f7 f03d
00000300: 0c8b ca3c 8bce 1c3e d523 353e 77d2 9a3d
00000310: f989 203d c0ed 48bd 0cac b03d 4571 eb3d
00000320: 75b5 de3d dcb0 27bd 0c5e 8e3d aeb0 8e3d
00000330: b8a9 343d c22f 3d3d 8f99 e83d 0e39 053e
00000340: edf2 cdbc d2ae b23d 620d 853c 1b52 38bc
00000350: 73fa 5abd 32c2 0d3e db5f d03c 1cfc cbbd
00000360: a66e 9b3d eb64 693d bafb 44bd 92b2 8a3d
00000370: c0e7 113e 9f2f afbd 45d4 dd3b 1a46 f4bc
00000380: 3c71 bd3d dff8 943c dae3 a8bb 9784 33bd
00000390: b144 2cbd db0e b73d d556 cebd 499b 50bc
000003a0: 4eb1 b2bd b97b fa3d f202 69bd 62a8 ed3d
000003b0: c28e 0d3e ab84 3c3d 06c0 b33d c315 e43d
000003c0: df3a 8cbb 1f60 84bc d6e5 abbd 50d9 693b
000003d0: 3cf6 cf3d 8a23 acbd e48f cf3d 6715 98bd
000003e0: 3d11 fd3d ff14 8ebb 0d19 9b3c df0b 603d
000003f0: 298c 19bd 998d 933d 2e41 7abc 65d5 d23d
-0.06906087 -0.019046104 -0.036742534 0.0010964567 0.088562205 -0.054201357 -0.004046667 0.083655454
0.057613034 0.111010514 0.039366893 -0.030978428 -0.09343171 0.15787236 0.032986782 -0.041026324
0.08781222 -0.01685879 0.08394218 0.047970403 -0.09612716 0.018732678 -0.08899063 -0.09874419
0.076673664 -0.01292908 0.032488074 0.037793733 0.15557726 -0.06974217 0.025617579 -0.037765484
-0.053647913 -0.055806644 -0.11099861 0.05256381 -0.061173692 0.14263858 -0.02112233 0.103453934
0.15680635 -0.034643672 -0.011655939 -0.0100695295 -0.027459122 0.14155766 -0.03849524 0.003349182
0.050152913 0.11614926 0.13170679 0.13242488 -0.07094025 -0.08125813 -0.02193468 -0.09743532
0.047677044 -0.03846426 0.047816675 0.07464923 0.13291372 0.106398 0.093149155 0.02062984
-0.07530878 0.07698309 0.14405464 0.051174514 0.06322498 0.052880306 0.113530666 0.032425113
-0.10104459 0.054075893 0.037854627 0.043770045 0.024874378 -0.0071658203 -0.06561538 0.12769598
0.0012329704 0.08589273 0.15761451 -0.07416026 -0.057935797 0.098238826 0.12516096 0.09436156
-0.05088845 0.09485701 0.075888634 0.043737788 0.024532242 -0.04657627 -0.085344456 0.031918027
0.011192358 -0.01296787 -0.10373556 -0.06865912 -0.00077185157 0.009234967 -0.026384631 0.044621814
0.09608983 -0.07248215 0.14982201 0.086174525 -0.060224745 0.12351938 -0.061094996 0.13428101
0.06251345 0.13587207 -0.018551514 0.1784499 0.017904941 -0.08192725 -0.034838986 -0.07298175
0.08337189 0.042139456 0.09101933 -0.0011911028 -0.075708516 -0.022924017 0.0071904846 0.06850868
0.118215546 0.046380784 0.000844088 -0.053407654 -0.10822383 0.057481322 0.00083855673 0.09463448
-0.13118428 0.034596432 -0.008056489 -0.048936166 0.05724324 0.01051336 0.008154678 -0.05731731
0.08281845 0.039362226 0.12301494 -0.062125083 -0.06704953 0.13089032 0.10020255 0.079620816
-0.11556563 -0.124345094 0.09108357 -0.07332753 0.01859841 0.11294654 0.057358455 0.112057745
0.055555984 0.0781778 0.042071253 0.08571678 0.025930712 0.030880544 -0.123492725 0.11994191
0.091213904 -0.09727483 -0.07169555 0.045214176 -0.08180714 -0.034855023 -0.061582632 -0.075209826
-0.090617895 -0.09791741 0.10802269 0.019675376 -0.13013399 0.06268191 0.024280442 0.008260045
-0.046416733 0.04808036 0.044145126 0.12416972 -0.09662801 -0.073984444 0.02046398 0.117659494
0.024724506 0.15313165 0.1768945 0.07559674 0.03919408 -0.04905486 0.08626565 0.11496214
0.10874454 -0.04094015 0.06951532 0.06967293 0.04410717 0.046188124 0.11357414 0.13010046
-0.02514025 0.087247506 0.016241733 -0.011250044 -0.053461503 0.13843611 0.025436332 -0.099601954
0.07589464 0.05698101 -0.048091628 0.06772341 0.14248562 -0.08554005 0.0067696893 -0.029818583
0.09250113 0.018185077 -0.005154115 -0.04382762 -0.042057697 0.0893838 -0.10075156 -0.012732335
-0.087252244 0.122306295 -0.056887574 0.11604382 0.13823989 0.04602496 0.0877686 0.11136963
-0.004279479 -0.016159115 -0.08393447 0.0035682507 0.10154387 -0.08405216 0.10134867 -0.07425957
0.123568036 -0.004335999 0.018932844 0.05469882 -0.037487183 0.07204742 -0.015274329 0.10294608

lstm.weight_ih_l1 f4 [256, 64]
00000000: dcfa 0d3c 20ee 2cbd 339f b8bd 95d7 1abe
00000010: 0122 f3bc 5b7c 80bd 95d0 43be 125c 2ebd
00000020: f207 c23d 442a ad3c 5c57 743d 1acb 493d
00000030: 346f 1abc a8ae 233d 976d 2d3d 56af 2f3e
00000040: 7620 f3bd b5ee 113e d4be 813d 7a62 bcbd
00000050: dfff bdbd 414c 0a3e 972f 253e f4a8 9e3d
00000060: 1ec8 02be d37f f1bd 9a38 513d 5fab 6dbd
00000070: d868 82bc d043 883d 0114 d7bd ba2b be3d
00000080: f8b6 c43b 6d7c c1bd 2ca2 c63d 2472 9fbd
00000090: 7085 1abd c3ce 41bd 5fed f53c b41b 8dbc
000000a0: e501 813d 3110 943d dadc 0dbc e883 bc3c
000000b0: e107 f6bd d5a4 02be 8e5d e7bd 8e57 2cbe
000000c0: de9d 65bd 286a 64bd 659f 06bd b31e 043e
000000d0: c21b 3abd c271 85bd 58ad 90bd ae54 b93d
000000e0: fe2a 4d3d 8f2b d13c 0bbc a3bb 8e08 6abc
000000f0: 5908 0fbe 3787 c03d f952 87bd 2fdc 85bd
00000100: c790 373d 8c83 1bbe d87a 5f3d b0dc d43d
00000110: 4d86 bfbd 1190 28be 0c0f 563d 0878 4c3d
00000120: a0e2 b3bc 54ec 1b3d 0844 4fbe 500a 113e
00000130: baa8 61bc 846f d6bd f1f5 c4bd 0c2a bb3a
00000140: 2b5c 703d 624d f7bd be75 9fbb 5bf3 5bbe
00000150: 4f48 a3bd 2c3f d03d f41d 323d 0d83 3a3e
00000160: f14b 203e 5327 10be fcf0 4fbe 92fc 1b3c
00000170: 8a1a 003d 05f3 88bc 4204 d43c dcb1 c83d
00000180: 08a3 00be 926b c63d 0ec3 913d 5eb9 573e
00000190: d665 eb3c d280 6ebc 71f7 2d3d 4f01 653d
000001a0: 1685 e33d 37c9 b83d 3a0a 17bd 5cc4 40bd
000001b0: 2d8b 3abd 3326 c4bc c207 55bd b0fd 1d3d
000001c0: ad1f fa3c 28df fbbd bbe9 12bb df00 d73d
000001d0: 3831 723d 5e2a 923c 59db 9abd c945 8abd
000001e0: 6f73 d93d 1859 3d3e 799a 7c3d 4e65 fcbd
000001f0: 8e2a 84bd 1ea5 d7bd 6117 bc3d 5a17 b03d
00000200: fe70 0f3e 2d75 eebc 26d0 f9bc 079a b6bd
00000210: 782b a3bd a044 20bd 99d0 83bd ae38 3e3b
00000220: e0e9 5dbd 1529 09bc f7b7 333e 2ee5 c5bd
00000230: 5c3b d03d c71d a13d cd20 1cbd 52b6 993c
00000240: 4d8e 39bc 5a68 82bd 02cd 7e3d 3d21 ad3d
00000250: 9fc2 0c3d f324 1ebd 63b8 933d b089 fd3d
00000260: ace7 4cbd ee8b 10be b43e 013e aa2f 0bbe
00000270: 4ee5 babc 1c4d e23d ad40 8abd 1ead e53c
00000280: f669 59bd df53 eb3d 9141 c13d d1b6 c53d
00000290: 679c d43d 521b 973d ac83 15be 5f6a 113e
000002a0: 9074 ae3d b37c ea3d fe57 363d 1af6 323d
000002b0: bbf0 00be 999c a63d 60fa 033d 5fd5 49bc
000002c0: c399 bd3c bb68 adbc 9ab2 1abc f331 b3bc
000002d0: 8bae 24be 824c 46bc 06bf 113d 4d35 4cbc
000002e0: 138d 91bd d242 03bc b798 94bd c0ff b2bd
000002f0: 4a01 02be 3474 0a3d 9e10 92bd 9fa1 ce3d
00000300: 9441 6dbd 2a0e 9e3d 7cf8 f4bd 4bd9 0cbe
00000310: 75c1 583d d4de 323d 2472 29be 148c a43d
00000320: 434f ddbd 98b4 d53d e58c 423c 1770 973d
00000330: 3aac 9b3d a5d6 253e 5e74 4ebc e965 29bd
00000340: a6db 13be 4e8c b73d 43c1 99bd 8158 0bbe
00000350: a431 a4bd c9c6 fc3d 6b4e 273e 7ebf 2bbd
00000360: f14d 9dbd 4cb8 593d 66cf a33d ad5d 52bd
00000370: 1586 483d 8430 c1bd b033 edbd 35b0 b53d
00000380: cc92 043d 6748 493d 4ac8 a9bd 39ab dd3d
00000390: 4ed2 0b3e c478 a53c ad9e da3c 5486 853d
000003a0: 724d e5bd d27e fb3c b61f e1bd 48bf 133e
000003b0: 34c8 3b3d 1a2c 7dbc d20c 37bd 30e1 e9bc
000003c0: 9575 80bd 6b28 fe3d 2fe4 8c3c c7f1 c9bd
000003d0: 12e1 803d e95a 18bc 2258 8bbd c446 c6bc
000003e0: a6ea 803c 20df 1d3c 3d03 b93d 7a18 b8bb
000003f0: 8d42 3bbc 41ee b7bb 418a 2abd 5326 ccbd
0.008665767 -0.04221928 -0.0901474 -0.151213 -0.0296793 -0.06273719 -0.19122536 -0.042568274
0.09474172 0.021138318 0.059653625 0.04926596 -0.009425927 0.039961487 0.04234084 0.17156729
-0.11871426 0.14251216 0.06335226 -0.091984704 -0.09277319 0.13505651 0.16131435 0.07747069
-0.12771651 -0.11791959 0.05107937 -0.05802476 -0.015919134 0.06653559 -0.10501862 0.09285684
0.006003257 -0.094475605 0.096989006 -0.077854425 -0.037724912 -0.047316324 0.030020414 -0.017225124
0.062991895 0.07229651 -0.008658612 0.023012117 -0.120132215 -0.12758191 -0.11297141 -0.16830274
-0.056058757 -0.0557653 -0.032866854 0.12902336 -0.04543663 -0.06515838 -0.07064313 0.090493545
0.05008983 0.025533466 -0.0049967817 -0.014284266 -0.13968028 0.0940079 -0.06607623 -0.06536137
0.044815805 -0.151869 0.054560512 0.10393655 -0.09351788 -0.16461207 0.052260444 0.04991916
-0.02195865 0.038067177 -0.20240796 0.1416409 -0.013773138 -0.10470489 -0.09617222 0.0014279499
0.05868165 -0.120753065 -0.004866331 -0.21479551 -0.07972776 0.10168299 0.043485597 0.18214054
0.1565397 -0.14077501 -0.20306772 0.009520667 0.03127531 -0.016717443 0.025880937 0.09799549
-0.12562191 0.09688486 0.07117282 0.21066806 0.028735083 -0.01455708 0.042472307 0.05590945
0.111093685 0.09022754 -0.036874987 -0.047062263 -0.045542885 -0.023943996 -0.05200935 0.038572013
0.030532682 -0.12298423 -0.0022417146 0.10498213 0.05912897 0.017842468 -0.075613685 -0.06751592
0.1061772 0.18491018 0.061670754 -0.1232401 -0.06453429 -0.105295405 0.09184147 0.08598204
0.14007947 -0.029108608 -0.03049476 -0.08916097 -0.079672754 -0.039127946 -0.06436271 0.0029025483
-0.05417812 -0.008371611 0.17550646 -0.09662853 0.10167572 0.07867008 -0.03811722 0.018763695
-0.011325431 -0.0636756 0.06220723 0.08453605 0.034365293 -0.038609456 0.07212903 0.123797774
-0.050025627 -0.14115879 0.12621576 -0.13592401 -0.02281442 0.11049864 -0.06750617 0.02803665
-0.053079568 0.114906065 0.09436334 0.0965401 0.10381394 0.07378258 -0.1460101 0.14200734
0.08518326 0.11449566 0.04451751 0.043691732 -0.12591831 0.081353374 0.032221198 -0.012318938
0.023144608 -0.021168103 -0.009441996 -0.021874404 -0.16082208 -0.012103202 0.035582565 -0.01246388
-0.07106986 -0.008011537 -0.072556905 -0.08740187 -0.12695804 0.033802226 -0.07132076 0.100894205
-0.05792387 0.07717545 -0.11961457 -0.13754766 0.05291887 0.043669537 -0.16547447 0.0803453
-0.108061336 0.10434836 0.011874412 0.07394426 0.07601209 0.16195162 -0.012600986 -0.041356955
-0.14439258 0.08962308 -0.07507565 -0.1360798 -0.08017281 0.12342603 0.16338508 -0.041930668
-0.07680882 0.053154275 0.079985425 -0.051358867 0.048955996 -0.09433082 -0.11582124 0.088714994
0.03236656 0.049141314 -0.08290155 0.10823674 0.13654444 0.020199187 0.02668699 0.06519762
-0.11196412 0.030700121 -0.109923765 0.14428437 0.045845225 -0.015452409 -0.04468996 -0.02854976
-0.06272427 0.12410053 0.01719865 -0.098605685 0.06292929 -0.009299018 -0.068039194 -0.024203666
0.01573689 0.009635717 0.09033821 -0.005618152 -0.011429441 -0.005613119 -0.041635755 -0.09968247

lstm.weight_hh_l1 f4 [256, 64]
00000000: a064 793d 4720 dbbc e919 8abd f6b9 2c3d
00000010: 02c9 a13d c26b 87bd 7ff5 113d 908d 78bd
00000020: aedf 563d 6ed1 9a3c 0a4a 2d3d afd8 5cbd
00000030: 3e49 003e 355e 023e 4867 8d3d 59c0 04bd
00000040: 25f7 da3b b38f 00bd e542 893d 7802 a7bb
00000050: b353 ca3d ef8c b33d dbbf 38bc 7991 edbd
00000060: 6c30 03bd e158 06bd 9f47 cabc 7e86 253d
00000070: fadf 9b3d dfd8 da3d d279 81bd 750a 0abd
00000080: 0a50 14bd 39fe 6abd 348d 6c3d 7037 69be
00000090: 4a7e 6cbd 4955 a2bb 5d0a 373e a0f0 133e
000000a0: 4dac 0dbe a239 71bd 3636 0fbe 48af 613d
000000b0: 3e5b f5bc 45c6 15be bf71 89bd 2d39 b4bd
000000c0: 57b6 ac3d 75e2 0c3e f30d e63d 0f93 593c
000000d0: 58d0 613e b9a5 9e3e 2355 3c3e 7c96 3b3d
000000e0: dcd3 d2bd c60b 18be 08b5 3ebd 3354 d0bd
000000f0: 5835 32be ae4f f53d 4c64 883d e3aa 29bd
00000100: 0aa8 f4bc 2aa5 4d3d 5c9e 88bc c7fc 423d
00000110: 43cf 6cbe 4983 1abd 7e46 eb3d a7ac 4c3d
00000120: 3088 c1bc 1b74 22be 6abf 04be 8cd7 42be
00000130: e43c afba f0cf cb3d 27ec 6d3d aad1 70bc
00000140: fcfa de3d e0ed 0e3c 3d06 813d 7891 c0bd
00000150: be46 0cbe cc59 393e 0069 9abc 5737 0dbe
00000160: e534 0abe 7b16 9b3d 16c7 ea3d 757a cabd
00000170: 7a80 1c3e 7945 0bbd ae32 d53d 67c2 81bc
00000180: 4e12 773c dc47 2dbe 9a9a af3d c5ea 18bd
00000190: c1a0 07bc 6d10 29be 084d f63d 135e 593d
000001a0: 62ed 3d3d 8d8d 753e 11a5 203d 0fb7 0ebe
000001b0: 7093 f93c e901 85be 5efe efbc 4d14 2fbe
000001c0: e02f 4e3e 9eb1 a63d 35cc 8b3e 4abf 78bd
000001d0: 6600 293c 00e0 99bc 5102 adbc 44fc 24be
000001e0: dd1b 8b3d 9401 323d c9ec 983d 661a 23bc
000001f0: 2bd8 63bd 5a6f 82bd 56d3 1c3e 7a10 d13d
00000200: 14a8 983d c7ff 19be 9d53 bd3d a951 d33d
00000210: 4732 a03d a504 bf3c 88b0 753d d058 40bd
00000220: 7c8c 063c ed32 7abc 099a a5bd cda3 053e
00000230: f96d 223d e230 96bd e95b ea3d 6cd0 863c
00000240: c9bf cd3d b2f4 0f3d 4763 24be eca1 babd
00000250: a157 9fbd 0203 083e 4015 a13b a19a c6bd
00000260: 1933 f4bd 588a c53c 705f 813d 8914 323d
00000270: 4b68 453d 04d2 123e 291c 90bd e09c f73d
00000280: ceff b93d 6185 a0bd 4ab8 85bd b858 c9bd
00000290: 9ca0 14bd fac0 223e 2441 70bc 91ac 023c
000002a0: 1a5b ef3c 1f14 0bbd 0c3c 8f3d d119 b63d
000002b0: 7c47 893d e42c b0bc a178 5dbd d817 81bd
000002c0: 235e c83c 2c7d 04bd bd84 8ebd 7da3 983c
000002d0: a927 c93d 4f57 f2bd 464d 613c c760 c6bd
000002e0: b506 e83c d9ca e53c f49c aa3d 7590 abbc
000002f0: e41d d63d 6e69 2a3e dd32 a73c 7560 80bd
00000300: 99fb 10bd c99f d43c 3afb 92bd 4ee2 bc3c
00000310: 51d4 94bd c479 c0bd 3eaf 00bd 53fc 503d
00000320: 211d 653d 442a 45bd c813 ea3d f24c 87bc
00000330: fba1 073d b916 453d 9783 b83d e6c8 cf3d
00000340: a69f ee3d 3a4a 513d 8fde f23b 5824 08bd
00000350: 3ff1 c6bd 1cdd d63d 112e 393d 37f6 dbbd
00000360: f045 ac3b 379b 8cbd 79b9 c93d e7e5 febd
00000370: ee31 c2bd 6a4c cdbc 6614 d03d aeb6 903d
00000380: f38e fc3d c1eb 983c 3a05 e63d 8475 c83b
00000390: 2e3c cf3d 1403 793c 9d10 dd3d d194 d8bd
000003a0: 879b d63d 9761 853b c2f9 553a f609 ca3c
000003b0: e9d9 5e3d ffbf a33b 8cdb babd 2f48 a3bd
000003c0: 0b33 d43d 6900 153d 85c5 debd cf5e e23d
000003d0: a03d 5a3d 98ee 433d d4a1 093d 4564 35bd
000003e0: 22e8 753d 3311 fcbc c050 b6bd 6d08 14bc
000003f0: b3f8 9f3d 704a 043e b0b5 973d e166 e7bc
0.06088698 -0.02674879 -0.06743223 0.042169534 0.07899667 -0.0661235 0.035634514 -0.06068188
0.05245941 0.018898692 0.042306937 -0.053917583 0.1252794 0.1273125 0.06904465 -0.03241
0.006682294 -0.031387042 0.06702212 -0.00509673 0.098792456 0.08767115 -0.011276211 -0.11600012
-0.0320286 -0.032799605 -0.024692355 0.040411465 0.076110795 0.10685896 -0.063220635 -0.03370138
-0.036209144 -0.057371352 0.05775185 -0.22775054 -0.057737626 -0.0049540144 0.17875047 0.1444726
-0.13835259 -0.058892854 -0.13985524 0.0550988 -0.029950734 -0.14626415 -0.067111485 -0.08799968
0.08433216 0.13758262 0.11233129 0.01327969 0.22052133 0.3098581 0.18391852 0.04579781
-0.10294315 -0.14848241 -0.046559364 -0.1017231 -0.17403162 0.11978088 0.06659755 -0.041422736
-0.029865284 0.05020634 -0.016677074 0.04760435 -0.23125939 -0.03772286 0.11488055 0.04996934
-0.02362451 -0.15864603 -0.12963644 -0.19027537 -0.0013369587 0.0995177 0.05808654 -0.014698425
0.10887715 0.008723706 0.06300018 -0.09402746 -0.13698861 0.18100661 -0.018848896 -0.13790642
-0.1349674 0.07572647 0.11463754 -0.09886638 0.15283385 -0.0340018 0.10410057 -0.015839769
0.015080048 -0.16921943 0.0857441 -0.03733327 -0.008278073 -0.16510172 0.12026411 0.05306823
0.046368964 0.23979779 0.03921992 -0.13937019 0.030465811 -0.2597802 -0.029296096 -0.17097588
0.2013545 0.081393465 0.27304235 -0.060729302 0.010315036 -0.01878357 -0.021119269 -0.16111857
0.06792424 0.043458536 0.07467038 -0.009955024 -0.055626076 -0.06368895 0.15314993 0.10208221
0.07453933 -0.15038978 0.092444636 0.1031831 0.0782209 0.023317644 0.059982806 -0.0469597
0.008212205 -0.015270931 -0.080860205 0.13050766 0.03965566 -0.073335424 0.11443312 0.016456805
0.10046346 0.03514547 -0.16053496 -0.091129154 -0.07780386 0.13282397 0.0049158633 -0.09697462
-0.119238086 0.024113819 0.063170314 0.043476615 0.048195165 0.14337927 -0.07036621 0.120904684
0.09081994 -0.0783794 -0.06529291 -0.09831375 -0.03628598 0.15893927 -0.014663968 0.007975713
0.029218245 -0.033954736 0.06993875 0.08891643 0.06703088 -0.02150578 -0.05407012 -0.06303376
0.02445895 -0.032345936 -0.069589116 0.018632645 0.09822018 -0.11833059 0.013751334 -0.096864276
0.02832351 0.028050827 0.08330718 -0.020942906 0.1045492 0.1664178 0.020409996 -0.06268398
-0.035396192 0.025955098 -0.07176824 0.02305713 -0.07267059 -0.09398225 -0.031417124 0.051021885
0.055935983 -0.04813601 0.11429554 -0.016516183 0.03311346 0.048117373 0.09009474 0.1014574
0.11651544 0.05109618 0.007411785 -0.033237785 -0.09713983 0.10491392 0.045209948 -0.10740321
0.0052573606 -0.068655424 0.09849829 -0.12446194 -0.094821796 -0.025060851 0.10160141 0.070660934
0.12331953 0.018667104 0.11231466 0.0061175246 0.101189 0.015198488 0.10794184 -0.105752595
0.10478883 0.0040704715 0.0008162522 0.024662953 0.054407034 0.004997253 -0.091239065 -0.07972752
0.10361298 0.036377344 -0.108775176 0.110532396 0.053281426 0.047834963 0.033601597 -0.044285078
0.060035832 -0.03076992 -0.089021206 -0.009035212 0.078111075 0.1291902 0.07407701 -0.028247299

lstm.bias_ih_l1 f4 [256]
00000000: c968 03bd 864e 1b3c 7c09 b23b 53bd 66bd
00000010: 1fba 0a3e 1843 e8ba 1134 68bb 0347 203d
00000020: 1b6e 3bbd 9a10 ac3b 00ed d83d 58da 643d
00000030: c0be e93d b5d7 543c a44d 1bbc 0cd1 003e
00000040: d76a 82bc ee69 0bbd d9f3 c13d 311c 9bbd
00000050: 7035 143d fbdb 54bd dfbc 26bd 50b8 1e3d
00000060: e97d cabd 70b6 163e 0135 acbd 76c0 30ba
00000070: 4bec ca3d 13e1 0d3e 607e 923d c2b0 f83d
00000080: 6f96 a23d 5f6c 5fbc 7488 8d3b 3fdb cb3d
00000090: 17e2 2b3d 6f0c 34bc 4d05 8c3d 563b 313e
000000a0: a899 0d3c 963e d53d 082d 03bd 7fd7 0e3e
000000b0: 164f 3ebd 8828 b7bd c57c 5e3d 284f f53c
000000c0: 3bed 69bd 595c 963d 1380 e4bc a8b1 3cbd
000000d0: 4128 4c3d 779c 24ba 61a4 22bd cae9 493d
000000e0: 6475 033e f0c3 cd3d 7a43 743d 97f8 1f3e
000000f0: 81c8 7f3d 45a6 ee3d ac16 8d3c ad8e d2bd
00000100: 6f55 cb3d cc84 ef3c e438 403e 7ece 0a3c
00000110: c1cf 82bd 2bff bdbc 6399 e53d 8efd 8a3d
00000120: 3e13 f7ba 83d0 053d 472b f73d 635b 01bd
00000130: c852 e43d 9f7f 913d af40 b2bc 1409 053e
00000140: 62e9 903d cde8 413d 618d 7b3b 563b cb3d
00000150: 6f2d 04bc c604 093d 0eaa 053d e6c6 843d
00000160: fe02 d2bd b05a 3fbd ecfe 18bc 167d edbc
00000170: 0b05 0e3d afd4 b8bd c790 4fbb 3013 ae3d
00000180: bbbe 923b ae60 e93a 5022 0d3d effb febc
00000190: f003 c03d 8562 0dba e5f8 c53d b325 1c3e
000001a0: 038a 733c 9c01 b73d 48a5 653d 6bf6 d73b
000001b0: 2dea 8c3d e306 f73d 2bd2 92bd 4989 2fbd
000001c0: 8559 81bd d093 28bd f136 073d 3439 1b3d
000001d0: e7d2 0e3e 2407 e93d 3974 43bd a110 123e
000001e0: 7eeb 1e3d 2b4b 013e 80ea a43d bf2c ef3c
000001f0: 1053 9cbc ffd4 bcbc e12a 103d 48b5 133d
00000200: 6d43 2cbc 9136 b0bd 0cea 32bd 5db5 633d
00000210: 9fa7 753d 3526 47bd 6bde 8fbd de95 01be
00000220: 5b8e c43c ca04 c23c b3e1 b3bc 7466 da3d
00000230: 39a6 8ebc 41ef 5cbc f4b7 84bd c8cb b53d
00000240: ed52 e0bd d947 6d3d e812 bbbd ba21 f1bd
00000250: 95ce e43d 5330 d53d 4a91 12bc b34e 47bd
00000260: 5120 8f3d 332a 79bd bb73 b7bc ee5b cfbc
00000270: a5df a93d f2f3 0f3d 00c4 01be e284 0a3e
00000280: b498 6d3d 35fe a43d cbe6 3e3c 0014 c1bc
00000290: 7ccf 9bbd 4f46 9e3d d575 c9bd 2f71 adbc
000002a0: 7d4f f9bc f109 1ebb 7b7b 13bd 65f5 77bd
000002b0: 6d4b 98bc a058 4bbd 6676 8bbd 6a9b 57bd
000002c0: baf8 993d 98e5 f43d e5b0 2abc b35d e4bd
000002d0: 55f3 ad3d d476 4dbd 72fb cd3d cda4 83bc
000002e0: bd0a c03c e86a 06be 9fb7 d43c 31d6 a3bc
000002f0: 079d c63d cae1 c53d c1b4 613c fe22 d4bc
00000300: 2dd6 b93d d299 e33d 9f32 24bd ea2c 013e
00000310: 5927 3f3e bf3e 683c 3b9a 32bb d0ae 563e
00000320: a926 b13c a7f7 7abd 363b 2d3e cfb7 a6bc
00000330: 528a 193e 13c2 263c e1da 653c 3c13 febc
00000340: 72d1 d93d 2542 383d 4f93 413e 3eda a23d
00000350: 812c 3a3e 78ec aabd a83d dc3c 588d fc3d
00000360: 0756 eabb 73ee a13d 6048 f53d 2e23 a3bd
00000370: 506b fc3d a879 b8bd b0e0 c2bc 7bc3 4bbd
00000380: e91f 413d 73f3 f93d 6b75 24bd b814 333e
00000390: 48da 883d dcaf 3f3c fb05 3c3d e15f 8d3d
000003a0: ae70 04bd 7b81 bebc 8c2b c33d bc68 1c3d
000003b0: d807 1a3e a6be 143d 423a f83b 00fd 5fbc
000003c0: 9dc9 563d 770c 893c 06c8 803d 023d ea3b
000003d0: 54c5 0f3e 4750 483e e237 403e 5af6 f43d
000003e0: 8d5a c03c bccc 103e a568 db3d 7b07 d63d
000003f0: dd79 383e 1400 ae3d 15df cf3c 8f47 c0bd
-0.032082353 0.009479171 0.0054332595 -0.056332897 0.13547562 -0.0017720191 -0.0035431425 0.039130222
-0.0457593 0.0052510025 0.10592079 0.05587229 0.11413336 0.012990882 -0.00947896 0.12579745
-0.015920086 -0.03403657 0.094703384 -0.075737365 0.036183774 -0.051967602 -0.040707465 0.038749993
-0.09887297 0.14718032 -0.08408547 -0.0006742546 0.099083506 0.1385539 0.0715301 0.12143089
0.07938849 -0.0136366775 0.004319245 0.09953927 0.041963663 -0.0109892925 0.068369485 0.17307791
0.008642592 0.10412328 -0.032025367 0.13949393 -0.04646214 -0.089432776 0.05431821 0.029944971
-0.057111006 0.07341833 -0.027893102 -0.046067864 0.049843077 -0.00062794186 -0.039707545 0.049295224
0.1283775 0.10047138 0.059634663 0.15622173 0.062447075 0.11652807 0.017222725 -0.102811195
0.099284045 0.029238127 0.18771702 0.008472083 -0.06387282 -0.023192963 0.11210897 0.06786643
-0.0018850339 0.032669555 0.120688014 -0.031581294 0.11148602 0.0710442 -0.02175936 0.12991744
0.07075764 0.047341157 0.003838383 0.09923427 -0.008067473 0.033451818 0.03263288 0.06483249
-0.10254477 -0.046717346 -0.009338122 -0.02899031 0.034672778 -0.09024941 -0.0031671987 0.084997535
0.0044783032 0.0017805302 0.03445655 -0.03112599 0.09375751 -0.00053934037 0.096666135 0.15248756
0.0148644475 0.08935854 0.056065828 0.0065906546 0.06880603 0.120618604 -0.071689926 -0.042855535
-0.063159026 -0.04115659 0.03301138 0.03789635 0.1394764 0.11378315 -0.04771826 0.14264156
0.0387988 0.1262633 0.0805254 0.029196141 -0.019082576 -0.023050783 0.035197143 0.036061555
-0.010514122 -0.08604158 -0.043680236 0.055592883 0.05997431 -0.04862042 -0.07024845 -0.12654826
0.023993662 0.023683924 -0.021958208 0.10664073 -0.017413246 -0.013484777 -0.06480399 0.08876759
-0.10953317 0.057929847 -0.091344655 -0.11774011 0.11172215 0.10409608 -0.008945772 -0.048659038
0.06988586 -0.06083126 -0.022394052 -0.02531239 0.0829461 0.035144754 -0.12672424 0.13527253
0.058006957 0.08056299 0.011651705 -0.023569107 -0.07607934 0.07728254 -0.09836928 -0.021172134
-0.03043341 -0.0024114812 -0.036006432 -0.06053676 -0.018590653 -0.049645066 -0.06809692 -0.05263845
0.07518144 0.11957854 -0.0104181515 -0.11150684 0.084936775 -0.05016215 0.10057725 -0.016069794
0.02344262 -0.13126719 0.025966464 -0.019999595 0.09697919 0.096622065 0.013776005 -0.025895592
0.09074054 0.11113323 -0.04008734 0.1261479 0.18667354 0.014175116 -0.0027252573 0.20965123
0.02162488 -0.061271336 0.16917118 -0.020351319 0.14994171 0.010178107 0.014029236 -0.031015031
0.10635652 0.044984955 0.1890385 0.07951783 0.1818104 -0.08345884 0.026884869 0.12331647
-0.0071513685 0.07906809 0.11976695 -0.07965694 0.12325156 -0.09007579 -0.02378878 -0.04974697
0.047149573 0.122046374 -0.04015104 0.17488372 0.06682259 0.011699643 0.04590414 0.06903053
-0.032334022 -0.0232551 0.0952979 0.03818582 0.15042055 0.03631463 0.0075753042 -0.01367116
0.052438367 0.016729577 0.062881514 0.007148386 0.14040118 0.19561873 0.18771318 0.1196105
0.023480678 0.141406 0.10713319 0.104506455 0.18015237 0.08496109 0.025374928 -0.09388649

lstm.bias_hh_l1 f4 [256]
00000000: 3258 80bd 105a 123d a05e 103e 6bf1 ccbd
00000010: e75a 7b3d b365 e2bc 54a9 ca3d bafb 143e
00000020: 3908 6cbb bc45 6bbd ef73 023e 3442 923c
00000030: a9df 2a3b 954c 033e bed2 5ebd c1d8 bf3c
00000040: 63c1 5abd 42c9 79bd 7430 813c 8aa4 1d3d
00000050: 1374 123e 9aaf c83c 2c19 ec3d f1f6 7f3c
00000060: 5fc4 b33d 72e5 f5bb ff75 e9bd 512a 8ebd
00000070: f303 e73d da4c 0b3d 9c7f 363e 3255 753d
00000080: 3705 b03d 8f20 d4bd b14f 913d d28d 073e
00000090: ca5d 973d c0f5 c5bd d394 d53c d727 76bd
000000a0: e0cb 353d 0ae9 e13d 01c1 01bc 8dfe 913b
000000b0: 84f5 8e3d f8b0 bb3d a756 d33d 241a 4fbd
000000c0: 9764 713d 37bf e93d 90db f73d 4d80 f33d
000000d0: 2630 033e 2b56 b33c abbd 89bc f1b9 ee3d
000000e0: 0498 3a3d aaef f13d ad48 bcbd 1812 af3d
000000f0: db46 333e 990b 143d 1ef5 f2bc 019e 9dbd
00000100: d668 113e eae7 923c 8c1e a03d e527 73bd
00000110: 55e1 16bd 3661 77bd f69d 143e 962c 153e
00000120: f41d fc3b cf53 003b f272 673d 18da 903d
00000130: 959c 51bd 932c 9c3d 1488 5fbd 72aa 51ba
00000140: 4ee5 e83d b779 3bbd 1cbd 6cbc 9b87 fabc
00000150: d8b6 4bbd 49b9 e03d 2e7c 033b 76b0 99bc
00000160: 3f53 183d e3d7 933d b5a1 3d3d 1f98 dc3d
00000170: d140 c13d 8d6d 643d 7214 63bd e2cc 503c
00000180: 5464 283e 8e18 823d cfba d63d b569 113e
00000190: bdab 9fbc a6f4 233d a65c 133e 204d c43d
000001a0: a3b5 e83d 1831 d13b 50cc b83d 0172 78bc
000001b0: 5199 34bd 7fdc 003c 9dce 82bd a0a6 0fbb
000001c0: e519 8c3c bc00 99bd 16b4 abbc 2a5c 42bd
000001d0: 4d8b a0bd 40f0 bdbd 23bb 8f3d 0c71 49bd
000001e0: 66e4 0d3e 3f0c a6bd 597f 193e 05d9 4bbd
000001f0: 89ba 60ba afa3 8d3d d1d4 a63d 8f5c b33d
00000200: 612a 56bc 442a d4bc b486 203d c3c4 b9bd
00000210: 2302 9e3c 597a 31bd 054c ae3c f7ee eebc
00000220: abb3 c23d c920 063d 09be 023b f623 283d
00000230: 1d2f 1d3d a604 413d 751d 2d3d 541e fabd
00000240: 3155 f13d 412b 633d ec33 a1bc e44f ebbd
00000250: ae43 6dbb 65ad d5bd ae95 e03d afff bebc
00000260: bd75 e2bd c501 3e3d f544 da3b 3e24 bbbd
00000270: 010a 1a3c f8dc b63d 73a5 b1bc 22e7 ab3d
00000280: 1e3f c7bd 6561 9dbd 562a a2bd 6345 273d
00000290: ac00 ee3d 192e a8bd 1b33 513d 9cf4 8c3b
000002a0: e775 c03c fcbb d5bc 8516 07bd 78f8 af39
000002b0: 165a 573c 872b 203c 32df a5bd c103 ad3d
000002c0: a557 083d 3ca4 d23d 702c 8ebc e1a9 883d
000002d0: 786a 4abd 6fc4 b63a 26ba 69bd 259f 77bd
000002e0: c680 d33d 6e72 c33a dadf 41bd 8f75 fabc
000002f0: 5bef c3bd 50e6 d93c c323 80bc 5728 d63d
00000300: dd85 3b3e 65b9 3a3b ad74 603d cdec 9c3c
00000310: ab7b 21bb 008a 373d bac7 90bd b816 723d
00000320: 3c3f 503d 3410 ea3c cdd0 883c c8fc 233e
00000330: bd27 093d 6f62 443c d5d5 9e3d 986c 8b3d
00000340: 0c6b e03d eb7a bb3d cf70 533e 79da 383d
00000350: 3ae5 ac3d 4a65 8a3d 6c3a 85bc bc93 93bd
00000360: fe93 953d 9a43 233e 63d9 f23c 6c24 d73d
00000370: fa45 e03d 26f9 91bd d00e fc3c a4c4 9bbd
00000380: 9a9e cfbc c396 f23c 1265 043e b2e4 2f3e
00000390: ccd2 75bc 1d24 f63d 2d24 833c edf8 8f3d
000003a0: 2340 e83d 8f20 903d 3c1b a23d 2e18 3f3e
000003b0: 8cce d3ba 933e 8d3d 5acd eebc a39c 013e
000003c0: b10a 1ebd 10d4 69bc 93fa 6fbd d5a5 923d
000003d0: caa6 0f3e 7414 e5bc e734 cd3d b08b 893d
000003e0: 11c5 723d 3df1 07bd 05f2 88bc 89d7 933d
000003f0: 7f4b 2f3e be6c 413e ded9 cfbd 636a 7b3d
-0.06266822 0.03573042 0.14098597 -0.10006984 0.061365988 -0.027636385 0.09895578 0.14549151
-0.0036015643 -0.05743955 0.12739538 0.017853834 0.0026073253 0.12822182 -0.0544002 0.023418786
-0.053407084 -0.06098295 0.015770175 0.038486995 0.14302091 0.024497796 0.11528239 0.01562284
0.08777689 -0.0075041587 -0.11399459 -0.06941665 0.1128005 0.03400884 0.17822117 0.0598957
0.08594745 -0.103577726 0.07095278 0.13237694 0.07390936 -0.09666014 0.026071941 -0.060096588
0.044383883 0.11030777 -0.007919551 0.0044553936 0.06980422 0.091646135 0.10319262 -0.05056204
0.05893382 0.114134245 0.12102425 0.11889706 0.12811336 0.021891674 -0.016814074 0.11656559
0.04555513 0.118132904 -0.09193549 0.08548373 0.17507498 0.036143873 -0.029657897 -0.076961525
0.14200148 0.01793285 0.07818326 -0.05936422 -0.036835987 -0.060395442 0.14513382 0.1456779
0.0076940004 0.0019581204 0.056506105 0.07072848 -0.05117472 0.07625689 -0.054573134 -0.00079981156
0.113718614 -0.045770373 -0.014449384 -0.03058224 -0.04973492 0.1097284 0.002006303 -0.018760901
0.037188765 0.072189115 0.046296794 0.10771202 0.09436191 0.05576854 -0.05543942 0.01274416
0.16444522 0.0635234 0.1048485 0.1420048 -0.01949107 0.040028237 0.14390811 0.09585023
0.113627695 0.0063840263 0.090233445 -0.015163899 -0.044091526 0.00786507 -0.063870646 -0.0021919385
0.017102191 -0.07470843 -0.020959895 -0.047451176 -0.078390695 -0.0927434 0.07018115 -0.049180076
0.13856658 -0.081078045 0.14989986 -0.049767513 -0.0008572718 0.06915986 0.0814606 0.087578885
-0.013071627 -0.02589906 0.039190963 -0.090707324 0.019288128 -0.04332957 0.021276483 -0.029166682
0.09506925 0.03274611 0.0019949696 0.04104992 0.03837501 0.047123574 0.04226442 -0.12212816
0.11783827 0.055461172 -0.019678079 -0.11489847 -0.003620367 -0.10433463 0.10966049 -0.023315279
-0.11057613 0.046388406 0.0066610523 -0.09137772 0.009401799 0.08928865 -0.021685338 0.083936945
-0.097288355 -0.07684592 -0.07918231 0.040837657 0.11621222 -0.082119174 0.05107413 0.0043016206
0.02349372 -0.026090614 -0.03298046 0.00033563725 0.013144037 0.009776003 -0.08099212 0.084479816
0.03328671 0.102852315 -0.017355174 0.06673027 -0.049417943 0.001394404 -0.05706229 -0.060454506
0.10327296 0.0014911422 -0.047332622 -0.030573634 -0.09567138 0.02659908 -0.015642053 0.10456913
0.18312784 0.0028491851 0.05479877 0.019155884 -0.0024640362 0.04480934 -0.07069345 0.059103698
0.050841555 0.02857218 0.016701126 0.16014397 0.033485163 0.011986359 0.07755629 0.06807822
0.109579176 0.09154304 0.20648502 0.045130227 0.08442159 0.067576006 -0.01626321 -0.072059125
0.07303618 0.15943757 0.029644674 0.10504994 0.10950847 -0.071275994 0.030768782 -0.076058656
-0.025344182 0.029612904 0.1292918 0.17177084 -0.015003871 0.12018607 0.01600846 0.07029901
0.11340358 0.0703746 0.07915351 0.18661568 -0.0016159578 0.06896701 -0.029150654 0.12657408
-0.038584415 -0.014271751 -0.058588576 0.07160536 0.14028469 -0.027963854 0.10019856 0.067160964
0.05926997 -0.033189047 -0.016716966 0.072188444 0.17118643 0.18889138 -0.10148977 0.061380755
