weights/model_weights.pth (torch, 34372 bytes, 6 tensors)

model_pi.0.weight f4 [64, 37]
000000 c8 a1 20 3f e5 76 68 3e 51 83 40 3e 55 82 4d 3e
       0.6274686 0.22701605 0.18800093 0.20069249
000010 84 31 89 bc 32 80 e4 3e de 9f 34 3e f5 13 0e bf
       -0.016747244 0.44629055 0.1763911 -0.554992
000020 50 02 a3 bc 94 07 d3 3d 49 57 58 3d b6 ec dd 3d
       -0.019898564 0.1030418 0.052817617 0.10836165
000030 0f 88 5f be 8e 61 b1 3d d9 db 74 be fa 87 ac be
       -0.21829246 0.08661185 -0.2391199 -0.33697492
000040 53 48 f0 3c 4d 6e 96 bd e0 b9 53 be 14 90 14 bc
       0.029331362 -0.07345257 -0.20676374 -0.009067554
000050 b9 f2 61 be 83 c5 0e 3c 42 be fd bd f8 93 8b 3e
       -0.22065248 0.008714083 -0.123898044 0.2726133
000060 02 5a 31 3e c8 8f 37 3e c2 90 cf bd 3f 1d e9 bc
       0.17319492 0.17925942 -0.10135032 -0.028456328
000070 05 7f 5b be c8 1e 00 be 3c 9b 9d 3d 60 1b 29 3e
       -0.21435173 -0.12511742 0.07695624 0.16514349
000080 87 5a 20 be 3c 6c e6 3d 1f e3 3f 3e 17 a0 c1 3d
       -0.15659533 0.11251113 0.18738984 0.09454363
000090 82 50 1f 3f 5b c8 79 3e 04 dd b1 be 0a 67 9a 3e
       0.6223222 0.24392836 -0.34738934 0.30156738
0000a0 00 12 b1 be 59 89 b5 be c0 8e d4 be 0a 89 fb bc
       -0.34584045 -0.3545635 -0.4151516 -0.030704994
0000b0 b4 76 89 3e 9a 8d d5 3d b6 d3 85 bd a3 c9 62 be
       0.26848376 0.10427399 -0.06534521 -0.22147231
0000c0 d9 e0 58 3d 19 91 79 3e d4 84 ba 3d b6 06 18 3e
       0.052948806 0.24371757 0.09107366 0.1484631
0000d0 3e 19 a7 3e 87 a3 3b be 32 6f d2 3d 59 f7 2c 3e
       0.32636446 -0.183241 0.10275115 0.1689123
0000e0 09 6f 84 be 5f 19 24 3d 93 f5 bb be 51 aa e6 3d
       -0.25865963 0.04006326 -0.36710796 0.11262954
0000f0 18 b3 88 bd fd e2 64 be a3 dd 2b bd 13 a2 07 3e
       -0.066747844 -0.22352214 -0.041959416 0.1324542
000100 ab 2e 95 be 05 53 2b be 43 69 cc 3e 69 92 a6 bd
       -0.29137167 -0.16730888 0.39924058 -0.08133394
000110 87 76 88 bd a9 cf ec 3d 2f 74 86 3e bd da d3 bc
       -0.06663232 0.115630455 0.26260516 -0.025861138
000120 78 ca 66 be 2f ca de bd 71 45 f9 3d 9a 96 a7 bd
       -0.22538173 -0.10878407 0.12171448 -0.08183022
000130 e9 b5 37 be 10 6b 78 be cf c7 c2 bd 7d 0f ca 3e
       -0.17940487 -0.24259591 -0.09510767 0.39464942
000140 89 08 03 be 05 6d 05 be 19 dd 27 3e a6 5a ca bd
       -0.12796225 -0.13029869 0.16392936 -0.09880571
000150 9b e4 aa bf fd a9 46 bd 74 86 46 3e 56 22 3c bd
       -1.3351015 -0.048501957 0.19387227 -0.045931183
000160 9d 37 26 3e 5c 02 43 3c 5a 3b ec be 69 60 ab 3d
       0.16232152 0.011902418 -0.46139032 0.08367998
000170 c8 4b 9d 3e 2b 9e 2b 3d e3 f9 e8 be 5b f3 63 3c
       0.3072188 0.041898888 -0.45503148 0.013913001
000180 22 f5 c8 3d 5f 6e 34 3e fa fe 8d 3d cb a3 01 bd
       0.098123804 0.17620228 0.069333985 -0.031650346
000190 00 a9 2d bd bc 1f 16 be 5c 91 6f 3e d6 12 8a 3e
       -0.0423975 -0.14660543 0.23395294 0.26967496
0001a0 cb 2e a0 be 3e e2 9e be 1b 65 e7 3e e3 67 c9 3d
       -0.312857 -0.31031984 0.45194325 0.09834268
0001b0 f2 2b 66 3e 4a 1f 4c 3e d9 c8 5e 3d 29 f0 e3 3e
       0.22477701 0.19933811 0.054390762 0.44519165
0001c0 bb 2e 65 bf e1 c0 32 bd a6 5e cd 3e ba 5a 12 3e
       -0.8952443 -0.043640975 0.40111274 0.14292422
0001d0 a1 c3 b6 bd ff 78 d0 3c 25 16 4f 3d ee 18 fa 3d
       -0.08924032 0.02544832 0.050558228 0.12211786
0001e0 3a a8 d8 3b 3a 99 37 3d d3 8e 90 3c 93 3f ed be
       0.006611851 0.044823863 0.017646229 -0.46337566
0001f0 07 ff 49 3d 5a c6 57 be a7 7b 27 bd 40 57 ae 3d
       0.04931548 -0.21071759 -0.04088941 0.08512735
000200 90 48 6e 3e 33 05 58 3e 4d 11 18 3e c1 5a c4 3c
       0.23269868 0.21095733 0.1485035 0.023969056
000210 e3 b7 8c bd c1 2d d5 3c 27 f7 8c 3d 54 08 50 3e
       -0.06871011 0.026022794 0.06883078 0.20315677
000220 e2 9f 76 3d ce 28 c4 bc 7f 68 19 be 25 d5 16 3d
       0.06021107 -0.023945238 -0.14981268 0.036824364
000230 55 46 ab bd ea ba 09 3d 6f b9 97 bd 19 e9 51 bd
       -0.08363024 0.03362552 -0.074084155 -0.05124769
000240 f9 f6 8a 3c 93 01 3b bd f6 f5 35 3e be c4 91 3d
       0.016963469 -0.0456558 0.17769608 0.07117604
000250 1b f0 2e 3e ec a0 26 be 98 76 21 bf bb 94 92 be
       0.1708378 -0.16272324 -0.63071585 -0.28629097
000260 8a 5b 16 3e ab ee af 3e 0f a1 a2 3e c8 b9 01 3f
       0.14683357 0.34361777 0.31763503 0.50674105
000270 54 d8 44 3e 0b b2 08 be 36 92 d2 ba 44 e5 1d 3e
       0.19223148 -0.13349168 -0.0016065303 0.15419489
000280 c8 74 1b be 96 59 09 bf de 6e 89 be 92 96 23 bf
       -0.15181267 -0.5365232 -0.26842397 -0.6390163
000290 8c a9 85 3d d4 00 9c 3e be 19 27 3c 8a c8 8f bd
       0.06526479 0.30469382 0.0101990085 -0.07020672
0002a0 1f b0 a3 3e 4d 00 0c 3c 50 1e 78 be 06 ca e2 bc
       0.31970307 0.008544994 -0.24230313 -0.027684223
0002b0 a0 eb 90 3d 05 ae 68 be 70 77 8b bd 22 6b 9f 3e
       0.07076192 -0.22722633 -0.0680989 0.31136423
0002c0 c7 c9 40 3d ed 64 e3 bd 44 79 9b be d6 f1 c0 3c
       0.04706743 -0.111032344 -0.30365956 0.023552816
0002d0 20 49 e6 3e 09 5d b4 3e 73 99 b2 bb 0b 1c 15 3d
       0.44977665 0.3522723 -0.0054504215 0.036403697
0002e0 40 cf 61 3e dd 5b b7 3e ab 15 d2 3d 57 a8 b8 3d
       0.22051716 0.35812274 0.10258039 0.09016483
0002f0 a1 af c5 bb 41 7e d6 3d bf 3c 63 bd c4 ec b8 be
       -0.0060328995 0.104733 -0.055477854 -0.36118138
000300 00 f8 27 3d 61 e1 c3 3d da 65 20 3c b7 ac 03 bd
       0.041007996 0.09564472 0.009789908 -0.032147136
000310 01 f8 c0 3c 07 26 e7 be a9 05 9d 3d 8d e6 1a be
       0.023555757 -0.451462 0.07667095 -0.1512701
000320 3f 70 eb 3e 17 17 42 3e a2 97 d6 bb 59 fa d8 bd
       0.45984074 0.1895412 -0.0065488378 -0.10594625
000330 5d 6d 56 3d e0 72 02 3e a0 d2 4c bd 59 b5 e0 bc
       0.05235039 0.12739134 -0.050005555 -0.027430223
000340 d8 0f 61 3e 69 7a 4f be c8 66 12 bc 3c ed c1 3d
       0.219787 -0.2026154 -0.008935638 0.09469077
000350 34 91 28 bd 24 7b cf 3d 30 c2 b3 be 88 f3 28 be
       -0.0411541 0.10130909 -0.3510909 -0.1649915
000360 3b 3f c8 bc cd 98 90 3d a0 44 cb 3b 65 10 55 3e
       -0.024444213 0.070603944 0.006203249 0.20807035
000370 4b f3 9f be 08 ea 1f 3d dd 8a c6 3e 45 0d 3d bd
       -0.31240305 0.03904155 0.3877782 -0.046155233
000380 68 31 e6 3e 1b 59 2e 3e fd 10 bf bd e4 89 b2 be
       0.4495957 0.17026179 -0.09329412 -0.34870827
000390 cc 39 54 3e 6f 9e 85 be 50 57 dd bd 28 38 e9 ba
       0.20725173 -0.26097438 -0.10807669 -0.0017793225
0003a0 af a5 83 3d 97 76 75 bd e0 3c 46 be b6 85 a9 3e
       0.06428086 -0.05992755 -0.1935916 0.33109826
0003b0 ef 39 32 3e cd be 8d be 10 0c 93 3d bd 99 c6 3d
       0.17404912 -0.27684632 0.07180035 0.09697292
0003c0 69 5c 2d be 9f a2 cc 3d 19 83 8b 3d cf ea 6f bd
       -0.16929783 0.09991955 0.06812114 -0.05857354
0003d0 49 ce b9 3d b5 6a 32 bd 49 49 27 be 89 7e 98 bd
       0.09072549 -0.043558795 -0.1633655 -0.0744601
0003e0 c4 26 01 bc 27 f4 0a be f2 e5 6d bd 68 3a e1 bd
       -0.007882778 -0.13569699 -0.05808062 -0.10997468
0003f0 f1 b7 8e bd 5c 63 c9 3d e7 4d b5 be ca 3f 2b bd
       -0.06968678 0.098334044 -0.35410997 -0.04180888

model_pi.0.bias f4 [64]
000000 d6 aa 86 3a c8 0a 73 be d5 9c 37 bc a1 13 87 3e
       0.0010274302 -0.23734581 -0.011206825 0.26382163
000010 e8 6f 7c 3f f7 46 c5 bd 74 6e 01 3f c3 b6 ed be
       0.98608255 -0.09632676 0.50559163 -0.464285
000020 2d ee a1 be d7 2d 13 3f d0 eb f2 3b 96 62 db 3e
       -0.31627026 0.5749182 0.007413365 0.42848653
000030 05 50 a7 3d 81 10 81 3e 28 83 86 3e 3f ad 5c bd
       0.081695594 0.25207904 0.2627194 -0.053876158
000040 62 2b 27 3e 3b c4 a6 3d b1 8e c2 be 65 3b 85 3e
       0.16325143 0.08142897 -0.3799949 0.26021877
000050 da f4 6b be 15 86 96 be 3c 77 84 3c 9a 61 24 3e
       -0.23042622 -0.2939917 0.016170137 0.16052857
000060 cb 8d 1e 3c af 5b 7c 3e e4 c3 77 3e e2 be 82 be
       0.009677361 0.2464435 0.2419582 -0.25536257
000070 4f 09 47 be 7a 61 52 3d 58 3d c3 be 61 e5 14 bf
       -0.19437145 0.051362492 -0.3813274 -0.58162504
000080 67 db 97 3b b8 25 2b 3e 10 3d 83 3c 35 31 ae 3e
       0.004634309 0.16713607 0.016020328 0.34021917
000090 e5 0b a7 3e 41 ef 50 bd 31 fd 0c be ac e3 25 3f
       0.32626262 -0.05100942 -0.1376846 0.64800525
0000a0 3c 59 ce 3e d5 0b bd 3e 3c 4c 74 3d a7 c5 74 bd
       0.40302455 0.3692309 0.059643015 -0.05975881
0000b0 60 16 0d be da de 68 bd cb 7e 38 bd 28 d6 90 be
       -0.13778067 -0.056853153 -0.045042794 -0.28288388
0000c0 e4 01 6d be de c8 e4 be 5f 89 2b 3e b6 38 51 be
       -0.23145252 -0.446845 0.16751622 -0.2043179
0000d0 ea 48 df bb 8b b3 e1 be 1b f1 d4 be 37 8d 4b bd
       -0.006814112 -0.44082293 -0.415902 -0.04969522
0000e0 b8 8e b1 bd 74 d8 0a 3d 7a 6d 9c bc 73 cb 3d 3d
       -0.086697996 0.033897832 -0.019095171 0.046336602
0000f0 80 c9 95 3d 97 28 cb bd 9e 6b b5 be 70 9a df 3c
       0.07313824 -0.09919851 -0.35433668 0.027295321

model_pi.2.weight f4 [64, 64]
000000 20 cb 0e bc 10 56 d1 3e 0e f7 2d 3e e7 3d ba bd
       -0.008715421 0.40885973 0.16988775 -0.09093838
000010 4a 55 a9 3e 1d e4 bf 3d 71 c9 f9 bc d6 32 b2 3e
       0.33072883 0.09369681 -0.030491563 0.3480441
000020 9c 05 f0 3d 6b 7f 01 3e 98 69 54 bd aa 62 93 3e
       0.1171982 0.12646262 -0.051858515 0.28786212
000030 81 fb 46 3e e8 67 3a 3d d6 b8 d8 3d a5 7f 54 bb
       0.19431879 0.04550925 0.1058213 -0.0032424715
000040 f1 34 0d 3e 67 f6 06 bf b1 aa 22 be 89 3b bb bd
       0.13789727 -0.5271973 -0.15885426 -0.09142215
000050 9e 8b a7 3e a6 d4 32 3d a4 fa 59 be f9 cf 6e bd
       0.32723707 0.04365983 -0.21287018 -0.058303807
000060 5b 64 47 3e 2d d2 5f be 9a 44 62 bb 30 9f 39 3e
       0.19471876 -0.2185752 -0.0034525753 0.18127131
000070 f2 9b 75 3e ce 15 1d be 68 04 18 3d 71 77 8b bd
       0.2398527 -0.15340349 0.037113577 -0.06809891
000080 5a 2d c0 3d 3b 2d b1 be 1f 7f 49 be a0 c9 79 3d
       0.0938365 -0.3460482 -0.19677399 0.0609833
000090 13 a8 ea be f5 2a 6f be 30 0c 95 3e 28 38 16 be
       -0.45831355 -0.2335623 0.2911086 -0.1466986
0000a0 1b d8 bc bd 73 de e7 bd a0 c4 b3 3d 78 9f d3 bd
       -0.09220906 -0.11321726 0.087777376 -0.103331506
0000b0 7b 83 05 3c 42 66 1b be ef 40 93 bd 67 43 d0 3d
       0.008149023 -0.15175727 -0.071901195 0.10169106
0000c0 79 c1 f8 bc b2 15 8b 3d bf 24 9c bd 6e 0e 08 3e
       -0.030365692 0.067912474 -0.07624196 0.13286754
0000d0 00 d0 07 bd e8 b2 96 3c 67 6e 6e be dd 39 1b 3e
       -0.03315735 0.018395856 -0.23284303 0.15158792
0000e0 d9 fe 19 3e 6e a9 a1 bd c4 d4 3b 3e 44 e9 d2 bd
       0.15038623 -0.07893644 0.18342882 -0.10298398
0000f0 21 96 b4 be 6b 97 ff 3c 50 9a ec 3c 51 bb 30 bd
       -0.3527079 0.031200131 0.028882176 -0.04314739
000100 37 22 20 3e ef 5c 8c 3c 0f 28 e9 be 90 b7 d8 bd
       0.15638052 0.017134158 -0.45538375 -0.10581887
000110 0d 71 e8 3e 84 00 21 bd 5f 66 ab 3e ef 45 dd be
       0.4539875 -0.039307132 0.3347654 -0.43217418
000120 44 fd 6f bc ca 43 5f 3e 76 ef a0 3e c3 ee 24 3f
       -0.014647786 0.21803203 0.31432694 0.6442682
000130 1e c6 a1 3d f4 02 28 3e ad 79 fb bc ca c5 73 bd
       0.07899116 0.16407377 -0.030697668 -0.0595148
000140 23 9b 43 be 72 67 39 3e cf e1 a8 be ac 90 a4 be
       -0.19102149 0.18105868 -0.32984778 -0.32141626
000150 64 32 c4 3a 3e 8a 1e be 1c 1f 8d 3e a6 45 1a 3e
       0.0014968631 -0.15482423 0.27562797 0.15065631
000160 52 a2 73 39 6c 19 1b 3e c7 74 e9 3d 07 89 e4 3d
       0.00023234755 0.15146416 0.11399227 0.111589484
000170 08 83 0e be 31 1e 0e 3e a3 21 6e be 79 2a eb bd
       -0.13917172 0.13878705 -0.23255019 -0.114827104
000180 64 64 4e bd f8 ef ce bc 73 f1 cc 3c d0 80 31 3e
       -0.05038871 -0.02526091 0.025017476 0.17334294
000190 ca cb 70 3e 03 64 b2 bd 33 e3 05 3f b0 41 a7 3e
       0.2351524 -0.08710482 0.52299803 0.32667303
0001a0 9a 45 de bc 36 1b 71 3e 7d ad f9 be 0d f8 9c be
       -0.027132798 0.23545536 -0.48765174 -0.30657998
0001b0 db bd 91 3d 19 c7 11 3e 77 67 8a bd 4f 0e 0e 3e
       0.0711629 0.14236106 -0.067580156 0.13872646
0001c0 54 67 3a 3d 1f 70 2f 3d 59 14 35 3e 37 73 1b 3e
       0.045508698 0.042831536 0.17683543 0.1518067
0001d0 34 7c 17 be 78 f9 52 be 83 02 8b be c2 92 9a 3c
       -0.14793473 -0.20602977 -0.27150354 0.018868808
0001e0 e6 80 0d bd 55 c4 4d be 79 0c 5a be c1 f5 af 3c
       -0.034546755 -0.20094426 -0.2129382 0.02147949
0001f0 22 d5 43 3f a1 3c 27 bd 8f d4 14 be 15 7c 8d 3d
       0.7649709 -0.040829305 -0.1453421 0.069084324
000200 82 6a b6 3d a2 d3 d7 3c b8 bb 49 bd 4a 66 03 be
       0.089070335 0.026346032 -0.04925129 -0.12831989
000210 38 0d ec bc 58 e8 49 be 68 3d fc bd b7 5f 12 3c
       -0.028814897 -0.19717538 -0.123164 0.008933953
000220 fc 4d 53 3e 1d ad 3a 3e 20 94 da bd b7 5c 37 be
       0.20635217 0.182301 -0.10672784 -0.17906462
000230 57 95 c3 3e 63 69 82 3e 16 59 31 be 6a 43 b4 3d
       0.38199875 0.2547103 -0.1731914 0.08801921
000240 17 1b b0 3d 55 9b 5a 3d cc 01 3a 3e 14 a6 64 be
       0.08598917 0.053370792 0.18164748 -0.22328979
000250 1d 4b 98 3e e1 c5 cf bd a7 71 33 bf 70 71 9a bd
       0.29744807 -0.10145164 -0.70095295 -0.07541168
000260 ba aa 1b 3e 00 e4 d0 3d c4 3f 4e be 82 a6 7f 3e
       0.15201846 0.101997375 -0.20141512 0.24965861
000270 72 0e 49 be ca 7e a0 3d 19 0a a7 3d fc 04 79 3e
       -0.19634417 0.07836683 0.08156223 0.24318308
000280 cd 61 94 be 84 76 88 be c8 d3 61 3d 35 18 24 be
       -0.28980866 -0.2665292 0.05513361 -0.16024859
000290 fb 16 31 bc 05 1d e7 3d 7e e5 c6 3d 49 3f 7a be
       -0.010808702 0.11284832 0.09711741 -0.24438204
0002a0 c7 bc 4b 3e 78 42 8e be c3 43 b7 3c 3a e2 05 3e
       0.19896232 -0.27785087 0.022371178 0.1307458
0002b0 a7 fc 62 3e 86 ae 98 3d ba 76 80 3d 5f 3a 0a be
       0.22166692 0.07455163 0.06272645 -0.1349883
0002c0 4f 48 b9 bb 61 9e 65 3d ae 00 ef bc 64 90 c2 be
       -0.005654372 0.056059245 -0.029175129 -0.38000786
0002d0 85 6f 10 3d 2c ad 37 bd d9 aa 1c 3e 45 a6 c7 3d
       0.035262603 -0.044842884 0.15299548 0.0974851
0002e0 d4 5d a3 3c f9 11 22 be 16 68 16 38 af 2c 74 3d
       0.019942202 -0.15827169 3.5859724e-05 0.059612926
0002f0 44 04 5a ba d6 36 5d 3c 15 53 69 3e 21 c4 8d be
       -0.00083166757 0.013501843 0.227856 -0.27688697
000300 96 d9 c5 be 90 3f 6c 3e 44 79 72 bd f8 eb e9 3d
       -0.38642567 0.23071122 -0.05919768 0.114219606
000310 09 8e 42 be ed c6 f7 3d 70 8f 82 3d a1 3b 59 bd
       -0.18999495 0.12098489 0.06375015 -0.053035382
000320 fa ac 7d be 12 9f c6 bc b5 30 60 3e a1 43 b2 3e
       -0.24773017 -0.024245773 0.2189358 0.34817222
000330 ab 31 81 3e 4b f6 4c 3e 89 e2 23 bd 7f cc 3f 3e
       0.25233206 0.20015828 -0.040010963 0.18730353
000340 61 ef 8b 3e 29 99 fd bd 49 62 4f 3c 09 f0 5d be
       0.2733107 -0.123827286 0.01265771 -0.21673597
000350 0c c1 0a be 39 de 62 3d c7 fa ee bc cd 43 6a 3e
       -0.13550204 0.05538771 -0.029172314 0.22877426
000360 6c d5 6b 3d 42 04 aa 3e 0c 0a fa be 84 24 10 3d
       0.05757658 0.33206373 -0.4883579 0.035191074
000370 d7 ac 65 be d4 10 42 be 53 96 bd bd 95 73 47 be
       -0.22429214 -0.18951732 -0.09257188 -0.19477685
000380 c6 4c db 3e cd a5 b5 3d 6b e4 9b bd db cc 9f bd
       0.4283201 0.088695146 -0.07611927 -0.07802745
000390 ff ae 1f 3e 84 fd 0f bd 82 83 93 bc f0 de 93 3d
       0.155941 -0.03515388 -0.018007044 0.07220256
0003a0 c6 e3 11 3e f1 9a e7 bd 1d c8 07 be f7 6f 28 be
       0.14247045 -0.113088496 -0.13259931 -0.16448961
0003b0 68 33 4f bc f1 95 ec 3c 51 20 4d be ae 08 4f be
       -0.012646534 0.028880091 -0.20031859 -0.20218155
0003c0 63 ab b5 3d c8 05 2a 3e 4f 04 ef bd 82 70 0e be
       0.0887058 0.16603768 -0.11670744 -0.13910106
0003d0 da db 3e 3e b7 6e da 3d 42 a9 2d be db cd 9e 3e
       0.18638554 0.106656484 -0.16959098 0.3101643
0003e0 ae 8d 8a bd d3 da e3 3d ac 17 c4 bc fa fc cf 3e
       -0.067653045 0.11125722 -0.023937069 0.40622693
0003f0 f0 d6 23 bf 7c b7 95 3d 01 68 f6 3d ef 16 93 be
       -0.63999844 0.073103875 0.12031556 -0.28728434

model_pi.2.bias f4 [64]
000000 d4 c2 9e bd 0d 17 97 3e 47 82 db 3c 5b 50 1c 3d
       -0.07752004 0.29509774 0.02679552 0.03816257
000010 2d 1c 13 3e cb 66 28 3e 42 29 b3 3d 72 45 8f be
       0.14366217 0.16445462 0.08748104 -0.2798267
000020 08 d5 ad 3e d4 9b 88 be 12 18 48 3e 64 2f b5 3e
       0.33951592 -0.26681387 0.19540432 0.3538772
000030 b8 66 5e 3e b3 06 8b 3b 14 4e bf bd 89 e3 89 3e
       0.21718872 0.004242742 -0.09341064 0.26931408
000040 6d 32 5a be 2c 43 5c be 95 55 18 bb 0f 07 3b be
       -0.21308298 -0.21509999 -0.002324437 -0.18264411
000050 71 0a 91 be d7 63 bf 3d d5 bd e1 3e 81 5b ab be
       -0.2832828 0.09345215 0.44090143 -0.3346825
000060 fc c0 e6 bd 1d 64 2d 3d 82 a2 fc 3d 3e 7f 2b bd
       -0.112672776 0.042331804 0.123356834 -0.041869394
000070 01 e8 10 3f 22 fd 43 3e 07 20 c3 be e4 61 8a bd
       0.5660401 0.19139531 -0.38110372 -0.067569524
000080 cb 6d 30 3e 00 1b f9 3c 5d 1d 11 be d7 e2 8b be
       0.17229383 0.030408382 -0.14171357 -0.27321503
000090 5b 79 16 be 0e 63 02 be 4f 00 96 be 20 9b 62 bd
       -0.14694731 -0.12733099 -0.2929711 -0.05532372
0000a0 6d a6 c9 3d 13 9e 62 3e 21 85 0d 3e a7 cf 1f 3e
       0.09846196 0.22130613 0.13820316 0.15606557
0000b0 2f f5 ba bc 2f 33 38 3b 6d db 83 3e bf ce 02 3e
       -0.02282199 0.002810668 0.25753346 0.1277418
0000c0 af 35 8c be 3c 12 b7 bd ff 72 c0 3e 32 1f 62 3e
       -0.27384707 -0.08939025 0.37587735 0.22082213
0000d0 ef e7 78 3e 51 2a c3 3e b1 bc 9f 3d 6b fc 2e bd
       0.24307226 0.38118222 0.07799662 -0.042721193
0000e0 28 94 84 3d d5 ee 19 be 7b ec b3 bd d3 97 b1 3e
       0.06473571 -0.15032513 -0.087853394 0.34686145
0000f0 03 01 0f 3e ff 39 6e 3e 0d 7c 65 bd a3 44 06 3e
       0.1396523 0.23264311 -0.056026507 0.1311212

model_pi.4.weight f4 [20, 64]
000000 6e 1a e5 3d 67 11 3c 3e e5 12 8f 3e 45 16 81 3e
       0.11186682 0.18366013 0.27944103 0.25212303
000010 1e 38 70 3e a4 d5 68 3d 2f 7b 31 bf 2a ae 2d be
       0.23458907 0.05684437 -0.6932859 -0.1696097
000020 1b ce 48 bf 17 4d a1 be d7 97 21 bd 65 1c 6d 3e
       -0.7843949 -0.31504127 -0.039451446 0.23155363
000030 e3 da 7e bd 1d c5 07 3e 7e 7b 24 be f2 38 51 3e
       -0.062220465 0.13258786 -0.16062734 0.20431879
000040 16 98 17 bf fb 22 69 bc c1 0a 0c 3e 74 d9 43 3d
       -0.5921644 -0.014229531 0.13675977 0.0478148
000050 7e c9 3f 3e 42 70 33 be a2 0e e6 3b 66 7b a8 3d
       0.18729207 -0.17523292 0.0070207873 0.082266614
000060 5b 88 76 bd f5 b8 1a be 39 a7 87 be f3 73 d1 3d
       -0.060188632 -0.15109618 -0.26494768 0.10227194
000070 66 1d ac bd 96 74 fb be 53 a9 93 3d 45 29 7f bd
       -0.08404045 -0.49112386 0.072100304 -0.062295217
000080 57 ea 15 be e2 df 3f bd c1 a9 de bd dc e6 22 3e
       -0.14640175 -0.04684437 -0.10872222 0.15908378
000090 0a dd 6d 3c 74 80 e3 bd 1a 15 f9 3d de 55 87 3d
       0.014518032 -0.11108485 0.12162228 0.06608175
0000a0 bf 0e af be 1f 2a f2 bd 77 88 9f 3c 42 65 be be
       -0.34190938 -0.1182444 0.019474251 -0.3718663
0000b0 28 da f1 3d 45 28 42 3e 24 54 42 bd cb a7 74 3e
       0.11809188 0.18960674 -0.047443524 0.23892133
0000c0 af 43 8a 3d 27 f7 3a 3f f7 92 0b be cf 19 4e 3e
       0.06751191 0.73033375 -0.13630281 0.20127033
0000d0 57 f4 0c be 49 b0 40 3e 5d eb 94 3e 70 36 ed 3d
       -0.13765083 0.18817247 0.29085818 0.11582649
0000e0 9d 81 5f bc d5 f9 21 3c 62 74 a3 3e d1 bf ec 3d
       -0.013641742 0.009886225 0.3192473 0.115600236
0000f0 a9 cc 55 be 9e 12 0a bf 09 a3 c3 bc 4f ab a5 bd
       -0.20878853 -0.5393466 -0.023881452 -0.08089315
000100 16 80 9e 3d 99 df dc bc 09 67 37 3d 8e 54 b9 bd
       0.07739274 -0.026962088 0.044775996 -0.09049331
000110 e8 f0 c4 bc c6 a1 fc bd 94 53 86 bd 9b bd 00 be
       -0.024040654 -0.12335543 -0.0655891 -0.12572329
000120 c4 96 c3 bd 60 89 50 3d 8a 52 d2 bd 70 8e f1 3c
       -0.09550241 0.05091226 -0.10269649 0.029486865
000130 32 2c 21 3d 4e a0 f8 bd b4 85 ff 3d 56 15 90 bd
       0.03934879 -0.12139951 0.12476674 -0.070353195
000140 cd f0 b6 3d 6a 80 e7 bd 28 15 d2 bc 9a b4 94 3d
       0.08932648 -0.1130379 -0.025644854 0.072610095
000150 3e 9a db bd a1 51 77 3c f6 de 40 3d e5 3b ff bd
       -0.10722779 0.015095145 0.047087632 -0.12462596
000160 11 58 45 3d 9f 41 f6 bc d0 11 9f bd 30 1f 6a bd
       0.04817969 -0.030060587 -0.07767069 -0.05715865
000170 19 20 5c 3c 83 d4 54 3c f2 4f e0 bd c8 80 51 3d
       0.013435387 0.01299012 -0.10952748 0.051148206
000180 10 93 22 bd 50 d2 19 be 60 fb 66 bd 3e a8 da bd
       -0.03969103 -0.15021634 -0.056392074 -0.10676621
000190 51 3c be bc 0c e0 13 be ae cb 0f be 30 bd 7c bc
       -0.02322212 -0.14440936 -0.14042541 -0.015425965
0001a0 e3 7b 1c be 0e 16 6b 3d 2a 8c ca bd a4 c3 8c bc
       -0.15281634 0.05739408 -0.098900154 -0.017183132
0001b0 46 f1 c1 bd 3c f6 c1 bd 46 6b e3 bd a3 11 52 3d
       -0.094698474 -0.094707936 -0.11104445 0.05128635
0001c0 0a c0 c8 bd 17 86 fa bc 9e cc 48 3d d5 c3 0d bb
       -0.098022535 -0.030581517 0.049023263 -0.0021631618
0001d0 b0 4f 24 3d a8 91 3e bd b8 ac b5 bc d4 dc 67 bd
       0.04011506 -0.046525627 -0.022177085 -0.056607082
0001e0 80 88 5c bd 1a d7 99 bd 3c 42 05 bd aa e8 09 bc
       -0.053841114 -0.075117305 -0.03253387 -0.008417288
0001f0 8b bf bb bd de 04 c7 bd c0 87 51 3d b8 8f 32 3c
       -0.09167393 -0.09717725 0.051154852 0.010898523
000200 cf 28 a9 bd 8e e5 a6 3e 52 92 21 bd 42 8a 00 3d
       -0.08259737 0.3259701 -0.039446183 0.031381853
000210 89 24 06 3b 29 97 a2 3d c8 ac 17 bd a1 b5 5b 3e
       0.0020468554 0.07938988 -0.03703001 0.21456005
000220 a1 a9 12 3e 47 e5 0a be 67 33 6d 3e 2c 4e 84 be
       0.14322521 -0.13564025 0.2316414 -0.2584089
000230 78 2a b0 bc c1 eb 30 3e 57 79 e4 3e 12 f7 64 3e
       -0.021504626 0.17277433 0.44623825 0.22359875
000240 bb c6 99 3d 68 2d 14 3d 7d 5f 24 be 91 6b 1d be
       0.07508608 0.036176115 -0.16052051 -0.15373065
000250 3a f8 37 bc f1 2c 3e 3e 32 dc 1c 3d 53 33 96 be
       -0.011228615 0.18571831 0.038295932 -0.29336032
000260 b1 a3 26 3e 63 ea ac 3c db 98 04 bf 09 36 f3 bd
       0.16273381 0.021107858 -0.5179574 -0.11875541
000270 6a 9d d9 3d 25 e6 e0 be 5b 4a f9 be de ae 08 3e
       0.106257275 -0.43925586 -0.4868954 0.13347957
000280 b6 33 04 be c9 de fc 3d 03 b9 0b bf 57 0b 26 bd
       -0.12910351 0.123471804 -0.5457918 -0.04053816
000290 4a e8 b8 3d b0 11 3b 3e 17 6e 65 3e 5d 8e 06 be
       0.090286806 0.18268466 0.22405277 -0.13140245
0002a0 1c e3 6f 3d be 58 91 3d 5c c6 5f 3e 9b 42 a0 3d
       0.058566198 0.07097004 0.21853012 0.07825204
0002b0 a8 aa b4 3c e2 4e fd 3d d9 92 9b bc dd 31 c1 3d
       0.022054031 0.12368561 -0.01899092 0.09433339
0002c0 4e d7 25 be c1 51 32 bf 7d 42 26 3e 2c 61 39 3d
       -0.16195413 -0.69655997 0.16236301 0.045258686
0002d0 92 13 da bd a2 6d 6a 3d 5f 28 27 bc 05 0d 89 be
       -0.10648264 0.05723346 -0.010202496 -0.26767746
0002e0 06 e5 b2 bd 05 0c bb be aa bd 3d bf c1 61 3a be
       -0.08735089 -0.36532608 -0.7411753 -0.18201353
0002f0 20 4d 4c bc 70 00 c9 bd f7 1c 02 bf 8c 12 e4 bd
       -0.01246956 -0.098145366 -0.50825447 -0.1113635
000300 4a 1d 31 be 0d c1 2c bf 3d b4 1f 3e 57 6e 15 bf
       -0.17296329 -0.6748207 0.15596099 -0.5837149
000310 7d 97 d5 3d ea 5e 2b 3e 52 c2 9a 3e 91 ec 0b 3e
       0.10429285 0.16735426 0.3022638 0.13664462
000320 0e ca 8d ba a7 52 bb bb 62 a0 29 be 07 3e 1a 3e
       -0.0010817663 -0.00571664 -0.16565087 0.15062724
000330 76 20 0b 3d 3d 1d 91 bf 35 16 3e bf 91 bb 85 be
       0.033966504 -1.1337048 -0.74252635 -0.26119664
000340 43 d0 1e be 3e 86 0e bf 20 59 9a 3e cf e9 62 be
       -0.15509133 -0.5567359 0.30146122 -0.22159503
000350 6e e5 71 bd 00 b6 a6 3b 72 0c 0b 3e 33 97 ca 3c
       -0.05905669 0.005087614 0.13578966 0.0247303
000360 c1 d0 22 3e 9c bd 9b 3e a1 55 26 be f8 82 51 be
       0.15899946 0.30418098 -0.16243602 -0.20460117
000370 d8 a2 09 bd 41 14 a7 3d f9 7f f9 3d 11 bc 72 3d
       -0.033602566 0.0815816 0.12182612 0.059261385
000380 84 81 96 bd a0 5f 4f bf 9f f2 89 be 6a 53 b0 bd
       -0.07348922 -0.8100529 -0.26942918 -0.0860966
000390 f1 ef 5c 3d 4c e9 b0 bd ae e2 90 3c 0c 4e c1 bd
       0.053939763 -0.08638248 0.017686214 -0.094387144
0003a0 13 de 75 3d 85 81 2f 3e 4d 7e d0 3d 61 22 4d be
       0.06002624 0.17139252 0.1018034 -0.20032646
0003b0 36 28 0e 3d fb ab 36 3e 71 b9 12 3e f5 e8 dd bd
       0.034706317 0.17839043 0.14328553 -0.10835449
0003c0 7b 6d 52 3e 82 9d 8a 3d 8f be ad bd 81 69 8d 3d
       0.20549576 0.067683235 -0.08483612 0.06904889
0003d0 82 25 c8 3e 69 f8 e5 3c 1a 0f 2c 3e 9c e2 00 3d
       0.39091116 0.028072553 0.16802636 0.03146611
0003e0 d4 e8 aa bc 07 3c 1c 3e 1a 7d c3 be 22 cf ba bd
       -0.020862974 0.15257274 -0.38181382 -0.09121539
0003f0 d3 64 1c 3e c0 f7 8d 3e 18 8b 21 be 13 19 e6 3e
       0.15272836 0.2772808 -0.15775716 0.44941005

model_pi.4.bias f4 [20]
000000 1e e3 34 bc 94 df 1c be 99 fe bc 3d e0 f5 ce 3e
       -0.011040477 -0.15319663 0.09228248 0.40421963
000010 bc 1c 84 3e 86 28 55 3e f0 70 b3 be 4a 5a 92 bc
       0.25803173 0.2081624 -0.35047102 -0.017865319
000020 fd 99 4e 3d e4 bb bc 3e ad 21 cf 3c 4a c9 f3 3c
       0.050439823 0.368621 0.025284613 0.029759068
000030 de a9 b2 bc 6b ab d9 be a8 03 c2 3e 2d b6 b5 bd
       -0.021809515 -0.42513594 0.37893414 -0.08872638
000040 10 d2 13 3e b1 a5 d1 3d 16 66 c6 bd dd f5 3d 3e
       0.14435601 0.10236681 -0.0968744 0.1855082
